{"format": "graph-model", "generatedBy": "2.14.0", "convertedBy": "TensorFlow.js Converter v4.12.0", "signature": {"inputs": {"args_0_1": {"name": "args_0_1:0", "dtype": "DT_INT64", "tensorShape": {"dim": [{"size": "-1"}]}}, "args_0": {"name": "args_0:0", "dtype": "DT_FLOAT", "tensorShape": {"dim": [{"size": "-1"}]}}}, "outputs": {"dense_6": {"name": "Identity:0", "dtype": "DT_FLOAT", "tensorShape": {"dim": [{"size": "-1"}, {"size": "2"}]}}}}, "modelTopology": {"node": [{"name": "StatefulPartitionedCall/sequential/layer_normalization_5/Reshape/shape/0", "op": "Const", "attr": {"value": {"tensor": {"dtype": "DT_INT32", "tensorShape": {}}}, "dtype": {"type": "DT_INT32"}}}, {"name": "StatefulPartitionedCall/sequential/layer_normalization_5/strided_slice_1/stack", "op": "Const", "attr": {"value": {"tensor": {"dtype": "DT_INT32", "tensorShape": {"dim": [{"size": "1"}]}}}, "dtype": {"type": "DT_INT32"}}}, {"name": "StatefulPartitionedCall/sequential/layer_normalization_5/strided_slice_1/stack_1", "op": "Const", "attr": {"value": {"tensor": {"dtype": "DT_INT32", "tensorShape": {"dim": [{"size": "1"}]}}}, "dtype": {"type": "DT_INT32"}}}, {"name": "StatefulPartitionedCall/sequential/layer_normalization_5/strided_slice_1/stack_2", "op": "Const", "attr": {"value": {"tensor": {"dtype": "DT_INT32", "tensorShape": {"dim": [{"size": "1"}]}}}, "dtype": {"type": "DT_INT32"}}}, {"name": "StatefulPartitionedCall/sequential/layer_normalization_5/Const_1", "op": "Const", "attr": {"value": {"tensor": {"dtype": "DT_INT32", "tensorShape": {"dim": [{"size": "1"}]}}}, "dtype": {"type": "DT_INT32"}}}, {"name": "StatefulPartitionedCall/sequential/layer_normalization_5/Reshape/shape/3", "op": "Const", "attr": {"value": {"tensor": {"dtype": "DT_INT32", "tensorShape": {}}}, "dtype": {"type": "DT_INT32"}}}, {"name": "StatefulPartitionedCall/sequential/layer_normalization_5/ones/Const", "op": "Const", "attr": {"value": {"tensor": {"dtype": "DT_FLOAT", "tensorShape": {}}}, "dtype": {"type": "DT_FLOAT"}}}, {"name": "StatefulPartitionedCall/sequential/layer_normalization_5/strided_slice/stack", "op": "Const", "attr": {"value": {"tensor": {"dtype": "DT_INT32", "tensorShape": {"dim": [{"size": "1"}]}}}, "dtype": {"type": "DT_INT32"}}}, {"name": "StatefulPartitionedCall/sequential/layer_normalization_5/strided_slice/stack_1", "op": "Const", "attr": {"value": {"tensor": {"dtype": "DT_INT32", "tensorShape": {"dim": [{"size": "1"}]}}}, "dtype": {"type": "DT_INT32"}}}, {"name": "StatefulPartitionedCall/sequential/layer_normalization_5/strided_slice/stack_2", "op": "Const", "attr": {"value": {"tensor": {"dtype": "DT_INT32", "tensorShape": {"dim": [{"size": "1"}]}}}, "dtype": {"type": "DT_INT32"}}}, {"name": "StatefulPartitionedCall/sequential/layer_normalization_5/Const", "op": "Const", "attr": {"value": {"tensor": {"dtype": "DT_INT32", "tensorShape": {"dim": [{"size": "1"}]}}}, "dtype": {"type": "DT_INT32"}}}, {"name": "StatefulPartitionedCall/sequential/layer_normalization_5/zeros/Const", "op": "Const", "attr": {"value": {"tensor": {"dtype": "DT_FLOAT", "tensorShape": {}}}, "dtype": {"type": "DT_FLOAT"}}}, {"name": "StatefulPartitionedCall/sequential/layer_normalization_5/Const_2", "op": "Const", "attr": {"value": {"tensor": {"dtype": "DT_FLOAT", "tensorShape": {"dim": [{}]}}}, "dtype": {"type": "DT_FLOAT"}}}, {"name": "StatefulPartitionedCall/sequential/layer_normalization_5/Const_3", "op": "Const", "attr": {"value": {"tensor": {"dtype": "DT_FLOAT", "tensorShape": {"dim": [{}]}}}, "dtype": {"type": "DT_FLOAT"}}}, {"name": "StatefulPartitionedCall/sequential/layer_normalization_4/Reshape/shape/0", "op": "Const", "attr": {"value": {"tensor": {"dtype": "DT_INT32", "tensorShape": {}}}, "dtype": {"type": "DT_INT32"}}}, {"name": "StatefulPartitionedCall/sequential/layer_normalization_4/strided_slice_1/stack", "op": "Const", "attr": {"value": {"tensor": {"dtype": "DT_INT32", "tensorShape": {"dim": [{"size": "1"}]}}}, "dtype": {"type": "DT_INT32"}}}, {"name": "StatefulPartitionedCall/sequential/layer_normalization_4/strided_slice_1/stack_1", "op": "Const", "attr": {"value": {"tensor": {"dtype": "DT_INT32", "tensorShape": {"dim": [{"size": "1"}]}}}, "dtype": {"type": "DT_INT32"}}}, {"name": "StatefulPartitionedCall/sequential/layer_normalization_4/strided_slice_1/stack_2", "op": "Const", "attr": {"value": {"tensor": {"dtype": "DT_INT32", "tensorShape": {"dim": [{"size": "1"}]}}}, "dtype": {"type": "DT_INT32"}}}, {"name": "StatefulPartitionedCall/sequential/layer_normalization_4/Const_1", "op": "Const", "attr": {"value": {"tensor": {"dtype": "DT_INT32", "tensorShape": {"dim": [{"size": "1"}]}}}, "dtype": {"type": "DT_INT32"}}}, {"name": "StatefulPartitionedCall/sequential/layer_normalization_4/Reshape/shape/3", "op": "Const", "attr": {"value": {"tensor": {"dtype": "DT_INT32", "tensorShape": {}}}, "dtype": {"type": "DT_INT32"}}}, {"name": "StatefulPartitionedCall/sequential/layer_normalization_4/ones/Const", "op": "Const", "attr": {"value": {"tensor": {"dtype": "DT_FLOAT", "tensorShape": {}}}, "dtype": {"type": "DT_FLOAT"}}}, {"name": "StatefulPartitionedCall/sequential/layer_normalization_4/strided_slice/stack", "op": "Const", "attr": {"value": {"tensor": {"dtype": "DT_INT32", "tensorShape": {"dim": [{"size": "1"}]}}}, "dtype": {"type": "DT_INT32"}}}, {"name": "StatefulPartitionedCall/sequential/layer_normalization_4/strided_slice/stack_1", "op": "Const", "attr": {"value": {"tensor": {"dtype": "DT_INT32", "tensorShape": {"dim": [{"size": "1"}]}}}, "dtype": {"type": "DT_INT32"}}}, {"name": "StatefulPartitionedCall/sequential/layer_normalization_4/strided_slice/stack_2", "op": "Const", "attr": {"value": {"tensor": {"dtype": "DT_INT32", "tensorShape": {"dim": [{"size": "1"}]}}}, "dtype": {"type": "DT_INT32"}}}, {"name": "StatefulPartitionedCall/sequential/layer_normalization_4/Const", "op": "Const", "attr": {"value": {"tensor": {"dtype": "DT_INT32", "tensorShape": {"dim": [{"size": "1"}]}}}, "dtype": {"type": "DT_INT32"}}}, {"name": "StatefulPartitionedCall/sequential/layer_normalization_4/zeros/Const", "op": "Const", "attr": {"value": {"tensor": {"dtype": "DT_FLOAT", "tensorShape": {}}}, "dtype": {"type": "DT_FLOAT"}}}, {"name": "StatefulPartitionedCall/sequential/layer_normalization_4/Const_2", "op": "Const", "attr": {"value": {"tensor": {"dtype": "DT_FLOAT", "tensorShape": {"dim": [{}]}}}, "dtype": {"type": "DT_FLOAT"}}}, {"name": "StatefulPartitionedCall/sequential/layer_normalization_4/Const_3", "op": "Const", "attr": {"value": {"tensor": {"dtype": "DT_FLOAT", "tensorShape": {"dim": [{}]}}}, "dtype": {"type": "DT_FLOAT"}}}, {"name": "StatefulPartitionedCall/sequential/layer_normalization_3/Reshape/shape/0", "op": "Const", "attr": {"value": {"tensor": {"dtype": "DT_INT32", "tensorShape": {}}}, "dtype": {"type": "DT_INT32"}}}, {"name": "StatefulPartitionedCall/sequential/layer_normalization_3/strided_slice_1/stack", "op": "Const", "attr": {"value": {"tensor": {"dtype": "DT_INT32", "tensorShape": {"dim": [{"size": "1"}]}}}, "dtype": {"type": "DT_INT32"}}}, {"name": "StatefulPartitionedCall/sequential/layer_normalization_3/strided_slice_1/stack_1", "op": "Const", "attr": {"value": {"tensor": {"dtype": "DT_INT32", "tensorShape": {"dim": [{"size": "1"}]}}}, "dtype": {"type": "DT_INT32"}}}, {"name": "StatefulPartitionedCall/sequential/layer_normalization_3/strided_slice_1/stack_2", "op": "Const", "attr": {"value": {"tensor": {"dtype": "DT_INT32", "tensorShape": {"dim": [{"size": "1"}]}}}, "dtype": {"type": "DT_INT32"}}}, {"name": "StatefulPartitionedCall/sequential/layer_normalization_3/Const_1", "op": "Const", "attr": {"value": {"tensor": {"dtype": "DT_INT32", "tensorShape": {"dim": [{"size": "1"}]}}}, "dtype": {"type": "DT_INT32"}}}, {"name": "StatefulPartitionedCall/sequential/layer_normalization_3/Reshape/shape/3", "op": "Const", "attr": {"value": {"tensor": {"dtype": "DT_INT32", "tensorShape": {}}}, "dtype": {"type": "DT_INT32"}}}, {"name": "StatefulPartitionedCall/sequential/layer_normalization_3/ones/Const", "op": "Const", "attr": {"value": {"tensor": {"dtype": "DT_FLOAT", "tensorShape": {}}}, "dtype": {"type": "DT_FLOAT"}}}, {"name": "StatefulPartitionedCall/sequential/layer_normalization_3/strided_slice/stack", "op": "Const", "attr": {"value": {"tensor": {"dtype": "DT_INT32", "tensorShape": {"dim": [{"size": "1"}]}}}, "dtype": {"type": "DT_INT32"}}}, {"name": "StatefulPartitionedCall/sequential/layer_normalization_3/strided_slice/stack_1", "op": "Const", "attr": {"value": {"tensor": {"dtype": "DT_INT32", "tensorShape": {"dim": [{"size": "1"}]}}}, "dtype": {"type": "DT_INT32"}}}, {"name": "StatefulPartitionedCall/sequential/layer_normalization_3/strided_slice/stack_2", "op": "Const", "attr": {"value": {"tensor": {"dtype": "DT_INT32", "tensorShape": {"dim": [{"size": "1"}]}}}, "dtype": {"type": "DT_INT32"}}}, {"name": "StatefulPartitionedCall/sequential/layer_normalization_3/Const", "op": "Const", "attr": {"value": {"tensor": {"dtype": "DT_INT32", "tensorShape": {"dim": [{"size": "1"}]}}}, "dtype": {"type": "DT_INT32"}}}, {"name": "StatefulPartitionedCall/sequential/layer_normalization_3/zeros/Const", "op": "Const", "attr": {"value": {"tensor": {"dtype": "DT_FLOAT", "tensorShape": {}}}, "dtype": {"type": "DT_FLOAT"}}}, {"name": "StatefulPartitionedCall/sequential/layer_normalization_3/Const_2", "op": "Const", "attr": {"value": {"tensor": {"dtype": "DT_FLOAT", "tensorShape": {"dim": [{}]}}}, "dtype": {"type": "DT_FLOAT"}}}, {"name": "StatefulPartitionedCall/sequential/layer_normalization_3/Const_3", "op": "Const", "attr": {"value": {"tensor": {"dtype": "DT_FLOAT", "tensorShape": {"dim": [{}]}}}, "dtype": {"type": "DT_FLOAT"}}}, {"name": "StatefulPartitionedCall/sequential/layer_normalization_2/Reshape/shape/0", "op": "Const", "attr": {"value": {"tensor": {"dtype": "DT_INT32", "tensorShape": {}}}, "dtype": {"type": "DT_INT32"}}}, {"name": "StatefulPartitionedCall/sequential/layer_normalization_2/strided_slice_1/stack", "op": "Const", "attr": {"value": {"tensor": {"dtype": "DT_INT32", "tensorShape": {"dim": [{"size": "1"}]}}}, "dtype": {"type": "DT_INT32"}}}, {"name": "StatefulPartitionedCall/sequential/layer_normalization_2/strided_slice_1/stack_1", "op": "Const", "attr": {"value": {"tensor": {"dtype": "DT_INT32", "tensorShape": {"dim": [{"size": "1"}]}}}, "dtype": {"type": "DT_INT32"}}}, {"name": "StatefulPartitionedCall/sequential/layer_normalization_2/strided_slice_1/stack_2", "op": "Const", "attr": {"value": {"tensor": {"dtype": "DT_INT32", "tensorShape": {"dim": [{"size": "1"}]}}}, "dtype": {"type": "DT_INT32"}}}, {"name": "StatefulPartitionedCall/sequential/layer_normalization_2/Const_1", "op": "Const", "attr": {"value": {"tensor": {"dtype": "DT_INT32", "tensorShape": {"dim": [{"size": "1"}]}}}, "dtype": {"type": "DT_INT32"}}}, {"name": "StatefulPartitionedCall/sequential/layer_normalization_2/Reshape/shape/3", "op": "Const", "attr": {"value": {"tensor": {"dtype": "DT_INT32", "tensorShape": {}}}, "dtype": {"type": "DT_INT32"}}}, {"name": "StatefulPartitionedCall/sequential/layer_normalization_2/ones/Const", "op": "Const", "attr": {"value": {"tensor": {"dtype": "DT_FLOAT", "tensorShape": {}}}, "dtype": {"type": "DT_FLOAT"}}}, {"name": "StatefulPartitionedCall/sequential/layer_normalization_2/strided_slice/stack", "op": "Const", "attr": {"value": {"tensor": {"dtype": "DT_INT32", "tensorShape": {"dim": [{"size": "1"}]}}}, "dtype": {"type": "DT_INT32"}}}, {"name": "StatefulPartitionedCall/sequential/layer_normalization_2/strided_slice/stack_1", "op": "Const", "attr": {"value": {"tensor": {"dtype": "DT_INT32", "tensorShape": {"dim": [{"size": "1"}]}}}, "dtype": {"type": "DT_INT32"}}}, {"name": "StatefulPartitionedCall/sequential/layer_normalization_2/strided_slice/stack_2", "op": "Const", "attr": {"value": {"tensor": {"dtype": "DT_INT32", "tensorShape": {"dim": [{"size": "1"}]}}}, "dtype": {"type": "DT_INT32"}}}, {"name": "StatefulPartitionedCall/sequential/layer_normalization_2/Const", "op": "Const", "attr": {"value": {"tensor": {"dtype": "DT_INT32", "tensorShape": {"dim": [{"size": "1"}]}}}, "dtype": {"type": "DT_INT32"}}}, {"name": "StatefulPartitionedCall/sequential/layer_normalization_2/zeros/Const", "op": "Const", "attr": {"value": {"tensor": {"dtype": "DT_FLOAT", "tensorShape": {}}}, "dtype": {"type": "DT_FLOAT"}}}, {"name": "StatefulPartitionedCall/sequential/layer_normalization_2/Const_2", "op": "Const", "attr": {"value": {"tensor": {"dtype": "DT_FLOAT", "tensorShape": {"dim": [{}]}}}, "dtype": {"type": "DT_FLOAT"}}}, {"name": "StatefulPartitionedCall/sequential/layer_normalization_2/Const_3", "op": "Const", "attr": {"value": {"tensor": {"dtype": "DT_FLOAT", "tensorShape": {"dim": [{}]}}}, "dtype": {"type": "DT_FLOAT"}}}, {"name": "StatefulPartitionedCall/sequential/layer_normalization_1/Reshape/shape/0", "op": "Const", "attr": {"value": {"tensor": {"dtype": "DT_INT32", "tensorShape": {}}}, "dtype": {"type": "DT_INT32"}}}, {"name": "StatefulPartitionedCall/sequential/layer_normalization_1/strided_slice_1/stack", "op": "Const", "attr": {"value": {"tensor": {"dtype": "DT_INT32", "tensorShape": {"dim": [{"size": "1"}]}}}, "dtype": {"type": "DT_INT32"}}}, {"name": "StatefulPartitionedCall/sequential/layer_normalization_1/strided_slice_1/stack_1", "op": "Const", "attr": {"value": {"tensor": {"dtype": "DT_INT32", "tensorShape": {"dim": [{"size": "1"}]}}}, "dtype": {"type": "DT_INT32"}}}, {"name": "StatefulPartitionedCall/sequential/layer_normalization_1/strided_slice_1/stack_2", "op": "Const", "attr": {"value": {"tensor": {"dtype": "DT_INT32", "tensorShape": {"dim": [{"size": "1"}]}}}, "dtype": {"type": "DT_INT32"}}}, {"name": "StatefulPartitionedCall/sequential/layer_normalization_1/Const_1", "op": "Const", "attr": {"value": {"tensor": {"dtype": "DT_INT32", "tensorShape": {"dim": [{"size": "1"}]}}}, "dtype": {"type": "DT_INT32"}}}, {"name": "StatefulPartitionedCall/sequential/layer_normalization_1/Reshape/shape/3", "op": "Const", "attr": {"value": {"tensor": {"dtype": "DT_INT32", "tensorShape": {}}}, "dtype": {"type": "DT_INT32"}}}, {"name": "StatefulPartitionedCall/sequential/layer_normalization_1/ones/Const", "op": "Const", "attr": {"value": {"tensor": {"dtype": "DT_FLOAT", "tensorShape": {}}}, "dtype": {"type": "DT_FLOAT"}}}, {"name": "StatefulPartitionedCall/sequential/layer_normalization_1/strided_slice/stack", "op": "Const", "attr": {"value": {"tensor": {"dtype": "DT_INT32", "tensorShape": {"dim": [{"size": "1"}]}}}, "dtype": {"type": "DT_INT32"}}}, {"name": "StatefulPartitionedCall/sequential/layer_normalization_1/strided_slice/stack_1", "op": "Const", "attr": {"value": {"tensor": {"dtype": "DT_INT32", "tensorShape": {"dim": [{"size": "1"}]}}}, "dtype": {"type": "DT_INT32"}}}, {"name": "StatefulPartitionedCall/sequential/layer_normalization_1/strided_slice/stack_2", "op": "Const", "attr": {"value": {"tensor": {"dtype": "DT_INT32", "tensorShape": {"dim": [{"size": "1"}]}}}, "dtype": {"type": "DT_INT32"}}}, {"name": "StatefulPartitionedCall/sequential/layer_normalization_1/Const", "op": "Const", "attr": {"value": {"tensor": {"dtype": "DT_INT32", "tensorShape": {"dim": [{"size": "1"}]}}}, "dtype": {"type": "DT_INT32"}}}, {"name": "StatefulPartitionedCall/sequential/layer_normalization_1/zeros/Const", "op": "Const", "attr": {"value": {"tensor": {"dtype": "DT_FLOAT", "tensorShape": {}}}, "dtype": {"type": "DT_FLOAT"}}}, {"name": "StatefulPartitionedCall/sequential/layer_normalization_1/Const_2", "op": "Const", "attr": {"value": {"tensor": {"dtype": "DT_FLOAT", "tensorShape": {"dim": [{}]}}}, "dtype": {"type": "DT_FLOAT"}}}, {"name": "StatefulPartitionedCall/sequential/layer_normalization_1/Const_3", "op": "Const", "attr": {"value": {"tensor": {"dtype": "DT_FLOAT", "tensorShape": {"dim": [{}]}}}, "dtype": {"type": "DT_FLOAT"}}}, {"name": "StatefulPartitionedCall/sequential/layer_normalization/Reshape/shape/0", "op": "Const", "attr": {"value": {"tensor": {"dtype": "DT_INT32", "tensorShape": {}}}, "dtype": {"type": "DT_INT32"}}}, {"name": "StatefulPartitionedCall/sequential/layer_normalization/strided_slice_1/stack", "op": "Const", "attr": {"value": {"tensor": {"dtype": "DT_INT32", "tensorShape": {"dim": [{"size": "1"}]}}}, "dtype": {"type": "DT_INT32"}}}, {"name": "StatefulPartitionedCall/sequential/layer_normalization/strided_slice_1/stack_1", "op": "Const", "attr": {"value": {"tensor": {"dtype": "DT_INT32", "tensorShape": {"dim": [{"size": "1"}]}}}, "dtype": {"type": "DT_INT32"}}}, {"name": "StatefulPartitionedCall/sequential/layer_normalization/strided_slice_1/stack_2", "op": "Const", "attr": {"value": {"tensor": {"dtype": "DT_INT32", "tensorShape": {"dim": [{"size": "1"}]}}}, "dtype": {"type": "DT_INT32"}}}, {"name": "StatefulPartitionedCall/sequential/layer_normalization/Const_1", "op": "Const", "attr": {"value": {"tensor": {"dtype": "DT_INT32", "tensorShape": {"dim": [{"size": "1"}]}}}, "dtype": {"type": "DT_INT32"}}}, {"name": "StatefulPartitionedCall/sequential/layer_normalization/Reshape/shape/3", "op": "Const", "attr": {"value": {"tensor": {"dtype": "DT_INT32", "tensorShape": {}}}, "dtype": {"type": "DT_INT32"}}}, {"name": "StatefulPartitionedCall/sequential/layer_normalization/ones/Const", "op": "Const", "attr": {"value": {"tensor": {"dtype": "DT_FLOAT", "tensorShape": {}}}, "dtype": {"type": "DT_FLOAT"}}}, {"name": "StatefulPartitionedCall/sequential/layer_normalization/strided_slice/stack", "op": "Const", "attr": {"value": {"tensor": {"dtype": "DT_INT32", "tensorShape": {"dim": [{"size": "1"}]}}}, "dtype": {"type": "DT_INT32"}}}, {"name": "StatefulPartitionedCall/sequential/layer_normalization/strided_slice/stack_1", "op": "Const", "attr": {"value": {"tensor": {"dtype": "DT_INT32", "tensorShape": {"dim": [{"size": "1"}]}}}, "dtype": {"type": "DT_INT32"}}}, {"name": "StatefulPartitionedCall/sequential/layer_normalization/strided_slice/stack_2", "op": "Const", "attr": {"value": {"tensor": {"dtype": "DT_INT32", "tensorShape": {"dim": [{"size": "1"}]}}}, "dtype": {"type": "DT_INT32"}}}, {"name": "StatefulPartitionedCall/sequential/layer_normalization/Const", "op": "Const", "attr": {"value": {"tensor": {"dtype": "DT_INT32", "tensorShape": {"dim": [{"size": "1"}]}}}, "dtype": {"type": "DT_INT32"}}}, {"name": "StatefulPartitionedCall/sequential/layer_normalization/zeros/Const", "op": "Const", "attr": {"value": {"tensor": {"dtype": "DT_FLOAT", "tensorShape": {}}}, "dtype": {"type": "DT_FLOAT"}}}, {"name": "StatefulPartitionedCall/sequential/layer_normalization/Const_2", "op": "Const", "attr": {"value": {"tensor": {"dtype": "DT_FLOAT", "tensorShape": {"dim": [{}]}}}, "dtype": {"type": "DT_FLOAT"}}}, {"name": "StatefulPartitionedCall/sequential/layer_normalization/Const_3", "op": "Const", "attr": {"value": {"tensor": {"dtype": "DT_FLOAT", "tensorShape": {"dim": [{}]}}}, "dtype": {"type": "DT_FLOAT"}}}, {"name": "StatefulPartitionedCall/sequential/dense/RaggedToTensor/Const", "op": "Const", "attr": {"value": {"tensor": {"dtype": "DT_INT64", "tensorShape": {}}}, "dtype": {"type": "DT_INT64"}}}, {"name": "StatefulPartitionedCall/sequential/dense/RaggedToTensor/zeros", "op": "Const", "attr": {"value": {"tensor": {"dtype": "DT_FLOAT", "tensorShape": {}}}, "dtype": {"type": "DT_FLOAT"}}}, {"name": "StatefulPartitionedCall/sequential/dense/MatMul/ReadVariableOp", "op": "Const", "attr": {"value": {"tensor": {"dtype": "DT_FLOAT", "tensorShape": {"dim": [{"size": "8"}, {"size": "512"}]}}}, "dtype": {"type": "DT_FLOAT"}}}, {"name": "StatefulPartitionedCall/sequential/dense/BiasAdd/ReadVariableOp", "op": "Const", "attr": {"value": {"tensor": {"dtype": "DT_FLOAT", "tensorShape": {"dim": [{"size": "512"}]}}}, "dtype": {"type": "DT_FLOAT"}}}, {"name": "StatefulPartitionedCall/sequential/layer_normalization/mul/ReadVariableOp", "op": "Const", "attr": {"value": {"tensor": {"dtype": "DT_FLOAT", "tensorShape": {"dim": [{"size": "512"}]}}}, "dtype": {"type": "DT_FLOAT"}}}, {"name": "StatefulPartitionedCall/sequential/layer_normalization/add/ReadVariableOp", "op": "Const", "attr": {"value": {"tensor": {"dtype": "DT_FLOAT", "tensorShape": {"dim": [{"size": "512"}]}}}, "dtype": {"type": "DT_FLOAT"}}}, {"name": "StatefulPartitionedCall/sequential/dense_1/MatMul/ReadVariableOp", "op": "Const", "attr": {"value": {"tensor": {"dtype": "DT_FLOAT", "tensorShape": {"dim": [{"size": "512"}, {"size": "512"}]}}}, "dtype": {"type": "DT_FLOAT"}}}, {"name": "StatefulPartitionedCall/sequential/dense_1/BiasAdd/ReadVariableOp", "op": "Const", "attr": {"value": {"tensor": {"dtype": "DT_FLOAT", "tensorShape": {"dim": [{"size": "512"}]}}}, "dtype": {"type": "DT_FLOAT"}}}, {"name": "StatefulPartitionedCall/sequential/layer_normalization_1/mul/ReadVariableOp", "op": "Const", "attr": {"value": {"tensor": {"dtype": "DT_FLOAT", "tensorShape": {"dim": [{"size": "512"}]}}}, "dtype": {"type": "DT_FLOAT"}}}, {"name": "StatefulPartitionedCall/sequential/layer_normalization_1/add/ReadVariableOp", "op": "Const", "attr": {"value": {"tensor": {"dtype": "DT_FLOAT", "tensorShape": {"dim": [{"size": "512"}]}}}, "dtype": {"type": "DT_FLOAT"}}}, {"name": "StatefulPartitionedCall/sequential/dense_2/MatMul/ReadVariableOp", "op": "Const", "attr": {"value": {"tensor": {"dtype": "DT_FLOAT", "tensorShape": {"dim": [{"size": "512"}, {"size": "1024"}]}}}, "dtype": {"type": "DT_FLOAT"}}}, {"name": "StatefulPartitionedCall/sequential/dense_2/BiasAdd/ReadVariableOp", "op": "Const", "attr": {"value": {"tensor": {"dtype": "DT_FLOAT", "tensorShape": {"dim": [{"size": "1024"}]}}}, "dtype": {"type": "DT_FLOAT"}}}, {"name": "StatefulPartitionedCall/sequential/layer_normalization_2/mul/ReadVariableOp", "op": "Const", "attr": {"value": {"tensor": {"dtype": "DT_FLOAT", "tensorShape": {"dim": [{"size": "1024"}]}}}, "dtype": {"type": "DT_FLOAT"}}}, {"name": "StatefulPartitionedCall/sequential/layer_normalization_2/add/ReadVariableOp", "op": "Const", "attr": {"value": {"tensor": {"dtype": "DT_FLOAT", "tensorShape": {"dim": [{"size": "1024"}]}}}, "dtype": {"type": "DT_FLOAT"}}}, {"name": "StatefulPartitionedCall/sequential/dense_3/MatMul/ReadVariableOp", "op": "Const", "attr": {"value": {"tensor": {"dtype": "DT_FLOAT", "tensorShape": {"dim": [{"size": "1024"}, {"size": "1024"}]}}}, "dtype": {"type": "DT_FLOAT"}}}, {"name": "StatefulPartitionedCall/sequential/dense_3/BiasAdd/ReadVariableOp", "op": "Const", "attr": {"value": {"tensor": {"dtype": "DT_FLOAT", "tensorShape": {"dim": [{"size": "1024"}]}}}, "dtype": {"type": "DT_FLOAT"}}}, {"name": "StatefulPartitionedCall/sequential/layer_normalization_3/mul/ReadVariableOp", "op": "Const", "attr": {"value": {"tensor": {"dtype": "DT_FLOAT", "tensorShape": {"dim": [{"size": "1024"}]}}}, "dtype": {"type": "DT_FLOAT"}}}, {"name": "StatefulPartitionedCall/sequential/layer_normalization_3/add/ReadVariableOp", "op": "Const", "attr": {"value": {"tensor": {"dtype": "DT_FLOAT", "tensorShape": {"dim": [{"size": "1024"}]}}}, "dtype": {"type": "DT_FLOAT"}}}, {"name": "StatefulPartitionedCall/sequential/dense_4/MatMul/ReadVariableOp", "op": "Const", "attr": {"value": {"tensor": {"dtype": "DT_FLOAT", "tensorShape": {"dim": [{"size": "1024"}, {"size": "2048"}]}}}, "dtype": {"type": "DT_FLOAT"}}}, {"name": "StatefulPartitionedCall/sequential/dense_4/BiasAdd/ReadVariableOp", "op": "Const", "attr": {"value": {"tensor": {"dtype": "DT_FLOAT", "tensorShape": {"dim": [{"size": "2048"}]}}}, "dtype": {"type": "DT_FLOAT"}}}, {"name": "StatefulPartitionedCall/sequential/layer_normalization_4/mul/ReadVariableOp", "op": "Const", "attr": {"value": {"tensor": {"dtype": "DT_FLOAT", "tensorShape": {"dim": [{"size": "2048"}]}}}, "dtype": {"type": "DT_FLOAT"}}}, {"name": "StatefulPartitionedCall/sequential/layer_normalization_4/add/ReadVariableOp", "op": "Const", "attr": {"value": {"tensor": {"dtype": "DT_FLOAT", "tensorShape": {"dim": [{"size": "2048"}]}}}, "dtype": {"type": "DT_FLOAT"}}}, {"name": "StatefulPartitionedCall/sequential/dense_5/MatMul/ReadVariableOp", "op": "Const", "attr": {"value": {"tensor": {"dtype": "DT_FLOAT", "tensorShape": {"dim": [{"size": "2048"}, {"size": "2048"}]}}}, "dtype": {"type": "DT_FLOAT"}}}, {"name": "StatefulPartitionedCall/sequential/dense_5/BiasAdd/ReadVariableOp", "op": "Const", "attr": {"value": {"tensor": {"dtype": "DT_FLOAT", "tensorShape": {"dim": [{"size": "2048"}]}}}, "dtype": {"type": "DT_FLOAT"}}}, {"name": "StatefulPartitionedCall/sequential/layer_normalization_5/mul/ReadVariableOp", "op": "Const", "attr": {"value": {"tensor": {"dtype": "DT_FLOAT", "tensorShape": {"dim": [{"size": "2048"}]}}}, "dtype": {"type": "DT_FLOAT"}}}, {"name": "StatefulPartitionedCall/sequential/layer_normalization_5/add/ReadVariableOp", "op": "Const", "attr": {"value": {"tensor": {"dtype": "DT_FLOAT", "tensorShape": {"dim": [{"size": "2048"}]}}}, "dtype": {"type": "DT_FLOAT"}}}, {"name": "StatefulPartitionedCall/sequential/dense_6/MatMul/ReadVariableOp", "op": "Const", "attr": {"value": {"tensor": {"dtype": "DT_FLOAT", "tensorShape": {"dim": [{"size": "2048"}, {"size": "2"}]}}}, "dtype": {"type": "DT_FLOAT"}}}, {"name": "StatefulPartitionedCall/sequential/dense_6/BiasAdd/ReadVariableOp", "op": "Const", "attr": {"value": {"tensor": {"dtype": "DT_FLOAT", "tensorShape": {"dim": [{"size": "2"}]}}}, "dtype": {"type": "DT_FLOAT"}}}, {"name": "args_0", "op": "Placeholder", "attr": {"shape": {"shape": {"dim": [{"size": "-1"}]}}, "dtype": {"type": "DT_FLOAT"}}}, {"name": "args_0_1", "op": "Placeholder", "attr": {"shape": {"shape": {"dim": [{"size": "-1"}]}}, "dtype": {"type": "DT_INT64"}}}, {"name": "StatefulPartitionedCall/sequential/dense/RaggedToTensor/RaggedTensorToTensor", "op": "RaggedTensorToTensor", "input": ["StatefulPartitionedCall/sequential/dense/RaggedToTensor/Const", "args_0", "StatefulPartitionedCall/sequential/dense/RaggedToTensor/zeros", "args_0_1"], "attr": {"row_partition_types": {"list": {"s": ["Uk9XX1NQTElUUw=="]}}, "num_row_partition_tensors": {"i": "1"}, "T": {"type": "DT_FLOAT"}, "Tindex": {"type": "DT_INT64"}, "Tshape": {"type": "DT_INT64"}}}, {"name": "StatefulPartitionedCall/sequential/dense/Relu", "op": "_FusedMatMul", "input": ["StatefulPartitionedCall/sequential/dense/RaggedToTensor/RaggedTensorToTensor", "StatefulPartitionedCall/sequential/dense/MatMul/ReadVariableOp", "StatefulPartitionedCall/sequential/dense/BiasAdd/ReadVariableOp"], "device": "/device:CPU:0", "attr": {"transpose_a": {"b": false}, "transpose_b": {"b": false}, "fused_ops": {"list": {"s": ["Qmlhc0FkZA==", "UmVsdQ=="]}}, "leakyrelu_alpha": {"f": 0.2}, "num_args": {"i": "1"}, "epsilon": {"f": 0.0}, "T": {"type": "DT_FLOAT"}}}, {"name": "StatefulPartitionedCall/sequential/layer_normalization/Shape", "op": "Shape", "input": ["StatefulPartitionedCall/sequential/dense/Relu"], "attr": {"T": {"type": "DT_FLOAT"}, "out_type": {"type": "DT_INT32"}}, "experimentalType": {"typeId": "TFT_PRODUCT", "args": [{"typeId": "TFT_SHAPE_TENSOR", "args": [{"typeId": "TFT_INT32"}]}]}}, {"name": "StatefulPartitionedCall/sequential/layer_normalization/strided_slice_1", "op": "StridedSlice", "input": ["StatefulPartitionedCall/sequential/layer_normalization/Shape", "StatefulPartitionedCall/sequential/layer_normalization/strided_slice_1/stack", "StatefulPartitionedCall/sequential/layer_normalization/strided_slice_1/stack_1", "StatefulPartitionedCall/sequential/layer_normalization/strided_slice_1/stack_2"], "attr": {"shrink_axis_mask": {"i": "0"}, "Index": {"type": "DT_INT32"}, "new_axis_mask": {"i": "0"}, "begin_mask": {"i": "0"}, "T": {"type": "DT_INT32"}, "end_mask": {"i": "1"}, "ellipsis_mask": {"i": "0"}}}, {"name": "StatefulPartitionedCall/sequential/layer_normalization/strided_slice", "op": "StridedSlice", "input": ["StatefulPartitionedCall/sequential/layer_normalization/Shape", "StatefulPartitionedCall/sequential/layer_normalization/strided_slice/stack", "StatefulPartitionedCall/sequential/layer_normalization/strided_slice/stack_1", "StatefulPartitionedCall/sequential/layer_normalization/strided_slice/stack_2"], "attr": {"shrink_axis_mask": {"i": "0"}, "new_axis_mask": {"i": "0"}, "Index": {"type": "DT_INT32"}, "begin_mask": {"i": "1"}, "T": {"type": "DT_INT32"}, "end_mask": {"i": "0"}, "ellipsis_mask": {"i": "0"}}}, {"name": "StatefulPartitionedCall/sequential/layer_normalization/Prod_1", "op": "Prod", "input": ["StatefulPartitionedCall/sequential/layer_normalization/strided_slice_1", "StatefulPartitionedCall/sequential/layer_normalization/Const_1"], "attr": {"Tidx": {"type": "DT_INT32"}, "T": {"type": "DT_INT32"}, "keep_dims": {"b": false}}}, {"name": "StatefulPartitionedCall/sequential/layer_normalization/Prod", "op": "Prod", "input": ["StatefulPartitionedCall/sequential/layer_normalization/strided_slice", "StatefulPartitionedCall/sequential/layer_normalization/Const"], "attr": {"Tidx": {"type": "DT_INT32"}, "T": {"type": "DT_INT32"}, "keep_dims": {"b": false}}}, {"name": "StatefulPartitionedCall/sequential/layer_normalization/Reshape/shape", "op": "Pack", "input": ["StatefulPartitionedCall/sequential/layer_normalization/Reshape/shape/0", "StatefulPartitionedCall/sequential/layer_normalization/Prod", "StatefulPartitionedCall/sequential/layer_normalization/Prod_1", "StatefulPartitionedCall/sequential/layer_normalization/Reshape/shape/3"], "attr": {"N": {"i": "4"}, "axis": {"i": "0"}, "T": {"type": "DT_INT32"}}}, {"name": "ConstantFolding/StatefulPartitionedCall/sequential/layer_normalization/ones/packed_const_axis", "op": "Const", "input": ["^StatefulPartitionedCall/sequential/layer_normalization/Prod"], "attr": {"value": {"tensor": {"dtype": "DT_INT32", "tensorShape": {}}}, "dtype": {"type": "DT_INT32"}}}, {"name": "ConstantFolding/StatefulPartitionedCall/sequential/layer_normalization/zeros/packed_const_axis", "op": "Const", "input": ["^StatefulPartitionedCall/sequential/layer_normalization/Prod"], "attr": {"value": {"tensor": {"dtype": "DT_INT32", "tensorShape": {}}}, "dtype": {"type": "DT_INT32"}}}, {"name": "StatefulPartitionedCall/sequential/layer_normalization/Reshape", "op": "Reshape", "input": ["StatefulPartitionedCall/sequential/dense/Relu", "StatefulPartitionedCall/sequential/layer_normalization/Reshape/shape"], "attr": {"T": {"type": "DT_FLOAT"}, "Tshape": {"type": "DT_INT32"}}}, {"name": "StatefulPartitionedCall/sequential/layer_normalization/ones/packed", "op": "ExpandDims", "input": ["StatefulPartitionedCall/sequential/layer_normalization/Prod", "ConstantFolding/StatefulPartitionedCall/sequential/layer_normalization/ones/packed_const_axis"], "attr": {"Tdim": {"type": "DT_INT32"}, "T": {"type": "DT_INT32"}}}, {"name": "StatefulPartitionedCall/sequential/layer_normalization/zeros/packed", "op": "ExpandDims", "input": ["StatefulPartitionedCall/sequential/layer_normalization/Prod", "ConstantFolding/StatefulPartitionedCall/sequential/layer_normalization/zeros/packed_const_axis"], "attr": {"Tdim": {"type": "DT_INT32"}, "T": {"type": "DT_INT32"}}}, {"name": "StatefulPartitionedCall/sequential/layer_normalization/ones", "op": "Fill", "input": ["StatefulPartitionedCall/sequential/layer_normalization/ones/packed", "StatefulPartitionedCall/sequential/layer_normalization/ones/Const"], "attr": {"T": {"type": "DT_FLOAT"}, "index_type": {"type": "DT_INT32"}}}, {"name": "StatefulPartitionedCall/sequential/layer_normalization/zeros", "op": "Fill", "input": ["StatefulPartitionedCall/sequential/layer_normalization/zeros/packed", "StatefulPartitionedCall/sequential/layer_normalization/zeros/Const"], "attr": {"T": {"type": "DT_FLOAT"}, "index_type": {"type": "DT_INT32"}}}, {"name": "StatefulPartitionedCall/sequential/layer_normalization/FusedBatchNormV3", "op": "FusedBatchNormV3", "input": ["StatefulPartitionedCall/sequential/layer_normalization/Reshape", "StatefulPartitionedCall/sequential/layer_normalization/ones", "StatefulPartitionedCall/sequential/layer_normalization/zeros", "StatefulPartitionedCall/sequential/layer_normalization/Const_2", "StatefulPartitionedCall/sequential/layer_normalization/Const_3"], "attr": {"exponential_avg_factor": {"f": 1.0}, "data_format": {"s": "TkNIVw=="}, "T": {"type": "DT_FLOAT"}, "U": {"type": "DT_FLOAT"}, "epsilon": {"f": 0.001}, "is_training": {"b": true}}}, {"name": "StatefulPartitionedCall/sequential/layer_normalization/Reshape_1", "op": "Reshape", "input": ["StatefulPartitionedCall/sequential/layer_normalization/FusedBatchNormV3", "StatefulPartitionedCall/sequential/layer_normalization/Shape"], "attr": {"T": {"type": "DT_FLOAT"}, "Tshape": {"type": "DT_INT32"}}}, {"name": "StatefulPartitionedCall/sequential/layer_normalization/mul", "op": "Mul", "input": ["StatefulPartitionedCall/sequential/layer_normalization/Reshape_1", "StatefulPartitionedCall/sequential/layer_normalization/mul/ReadVariableOp"], "attr": {"T": {"type": "DT_FLOAT"}}}, {"name": "StatefulPartitionedCall/sequential/layer_normalization/add", "op": "AddV2", "input": ["StatefulPartitionedCall/sequential/layer_normalization/mul", "StatefulPartitionedCall/sequential/layer_normalization/add/ReadVariableOp"], "attr": {"T": {"type": "DT_FLOAT"}}}, {"name": "StatefulPartitionedCall/sequential/dense_1/Relu", "op": "_FusedMatMul", "input": ["StatefulPartitionedCall/sequential/layer_normalization/add", "StatefulPartitionedCall/sequential/dense_1/MatMul/ReadVariableOp", "StatefulPartitionedCall/sequential/dense_1/BiasAdd/ReadVariableOp"], "device": "/device:CPU:0", "attr": {"transpose_a": {"b": false}, "transpose_b": {"b": false}, "fused_ops": {"list": {"s": ["Qmlhc0FkZA==", "UmVsdQ=="]}}, "num_args": {"i": "1"}, "leakyrelu_alpha": {"f": 0.2}, "epsilon": {"f": 0.0}, "T": {"type": "DT_FLOAT"}}}, {"name": "StatefulPartitionedCall/sequential/layer_normalization_1/Shape", "op": "Shape", "input": ["StatefulPartitionedCall/sequential/dense_1/Relu"], "attr": {"T": {"type": "DT_FLOAT"}, "out_type": {"type": "DT_INT32"}}, "experimentalType": {"typeId": "TFT_PRODUCT", "args": [{"typeId": "TFT_SHAPE_TENSOR", "args": [{"typeId": "TFT_INT32"}]}]}}, {"name": "StatefulPartitionedCall/sequential/layer_normalization_1/strided_slice_1", "op": "StridedSlice", "input": ["StatefulPartitionedCall/sequential/layer_normalization_1/Shape", "StatefulPartitionedCall/sequential/layer_normalization_1/strided_slice_1/stack", "StatefulPartitionedCall/sequential/layer_normalization_1/strided_slice_1/stack_1", "StatefulPartitionedCall/sequential/layer_normalization_1/strided_slice_1/stack_2"], "attr": {"shrink_axis_mask": {"i": "0"}, "Index": {"type": "DT_INT32"}, "new_axis_mask": {"i": "0"}, "begin_mask": {"i": "0"}, "end_mask": {"i": "1"}, "T": {"type": "DT_INT32"}, "ellipsis_mask": {"i": "0"}}}, {"name": "StatefulPartitionedCall/sequential/layer_normalization_1/strided_slice", "op": "StridedSlice", "input": ["StatefulPartitionedCall/sequential/layer_normalization_1/Shape", "StatefulPartitionedCall/sequential/layer_normalization_1/strided_slice/stack", "StatefulPartitionedCall/sequential/layer_normalization_1/strided_slice/stack_1", "StatefulPartitionedCall/sequential/layer_normalization_1/strided_slice/stack_2"], "attr": {"shrink_axis_mask": {"i": "0"}, "Index": {"type": "DT_INT32"}, "new_axis_mask": {"i": "0"}, "begin_mask": {"i": "1"}, "T": {"type": "DT_INT32"}, "end_mask": {"i": "0"}, "ellipsis_mask": {"i": "0"}}}, {"name": "StatefulPartitionedCall/sequential/layer_normalization_1/Prod_1", "op": "Prod", "input": ["StatefulPartitionedCall/sequential/layer_normalization_1/strided_slice_1", "StatefulPartitionedCall/sequential/layer_normalization_1/Const_1"], "attr": {"T": {"type": "DT_INT32"}, "Tidx": {"type": "DT_INT32"}, "keep_dims": {"b": false}}}, {"name": "StatefulPartitionedCall/sequential/layer_normalization_1/Prod", "op": "Prod", "input": ["StatefulPartitionedCall/sequential/layer_normalization_1/strided_slice", "StatefulPartitionedCall/sequential/layer_normalization_1/Const"], "attr": {"Tidx": {"type": "DT_INT32"}, "T": {"type": "DT_INT32"}, "keep_dims": {"b": false}}}, {"name": "StatefulPartitionedCall/sequential/layer_normalization_1/Reshape/shape", "op": "Pack", "input": ["StatefulPartitionedCall/sequential/layer_normalization_1/Reshape/shape/0", "StatefulPartitionedCall/sequential/layer_normalization_1/Prod", "StatefulPartitionedCall/sequential/layer_normalization_1/Prod_1", "StatefulPartitionedCall/sequential/layer_normalization_1/Reshape/shape/3"], "attr": {"N": {"i": "4"}, "axis": {"i": "0"}, "T": {"type": "DT_INT32"}}}, {"name": "ConstantFolding/StatefulPartitionedCall/sequential/layer_normalization_1/ones/packed_const_axis", "op": "Const", "input": ["^StatefulPartitionedCall/sequential/layer_normalization_1/Prod"], "attr": {"value": {"tensor": {"dtype": "DT_INT32", "tensorShape": {}}}, "dtype": {"type": "DT_INT32"}}}, {"name": "ConstantFolding/StatefulPartitionedCall/sequential/layer_normalization_1/zeros/packed_const_axis", "op": "Const", "input": ["^StatefulPartitionedCall/sequential/layer_normalization_1/Prod"], "attr": {"value": {"tensor": {"dtype": "DT_INT32", "tensorShape": {}}}, "dtype": {"type": "DT_INT32"}}}, {"name": "StatefulPartitionedCall/sequential/layer_normalization_1/Reshape", "op": "Reshape", "input": ["StatefulPartitionedCall/sequential/dense_1/Relu", "StatefulPartitionedCall/sequential/layer_normalization_1/Reshape/shape"], "attr": {"T": {"type": "DT_FLOAT"}, "Tshape": {"type": "DT_INT32"}}}, {"name": "StatefulPartitionedCall/sequential/layer_normalization_1/ones/packed", "op": "ExpandDims", "input": ["StatefulPartitionedCall/sequential/layer_normalization_1/Prod", "ConstantFolding/StatefulPartitionedCall/sequential/layer_normalization_1/ones/packed_const_axis"], "attr": {"Tdim": {"type": "DT_INT32"}, "T": {"type": "DT_INT32"}}}, {"name": "StatefulPartitionedCall/sequential/layer_normalization_1/zeros/packed", "op": "ExpandDims", "input": ["StatefulPartitionedCall/sequential/layer_normalization_1/Prod", "ConstantFolding/StatefulPartitionedCall/sequential/layer_normalization_1/zeros/packed_const_axis"], "attr": {"Tdim": {"type": "DT_INT32"}, "T": {"type": "DT_INT32"}}}, {"name": "StatefulPartitionedCall/sequential/layer_normalization_1/ones", "op": "Fill", "input": ["StatefulPartitionedCall/sequential/layer_normalization_1/ones/packed", "StatefulPartitionedCall/sequential/layer_normalization_1/ones/Const"], "attr": {"T": {"type": "DT_FLOAT"}, "index_type": {"type": "DT_INT32"}}}, {"name": "StatefulPartitionedCall/sequential/layer_normalization_1/zeros", "op": "Fill", "input": ["StatefulPartitionedCall/sequential/layer_normalization_1/zeros/packed", "StatefulPartitionedCall/sequential/layer_normalization_1/zeros/Const"], "attr": {"T": {"type": "DT_FLOAT"}, "index_type": {"type": "DT_INT32"}}}, {"name": "StatefulPartitionedCall/sequential/layer_normalization_1/FusedBatchNormV3", "op": "FusedBatchNormV3", "input": ["StatefulPartitionedCall/sequential/layer_normalization_1/Reshape", "StatefulPartitionedCall/sequential/layer_normalization_1/ones", "StatefulPartitionedCall/sequential/layer_normalization_1/zeros", "StatefulPartitionedCall/sequential/layer_normalization_1/Const_2", "StatefulPartitionedCall/sequential/layer_normalization_1/Const_3"], "attr": {"exponential_avg_factor": {"f": 1.0}, "data_format": {"s": "TkNIVw=="}, "U": {"type": "DT_FLOAT"}, "T": {"type": "DT_FLOAT"}, "epsilon": {"f": 0.001}, "is_training": {"b": true}}}, {"name": "StatefulPartitionedCall/sequential/layer_normalization_1/Reshape_1", "op": "Reshape", "input": ["StatefulPartitionedCall/sequential/layer_normalization_1/FusedBatchNormV3", "StatefulPartitionedCall/sequential/layer_normalization_1/Shape"], "attr": {"T": {"type": "DT_FLOAT"}, "Tshape": {"type": "DT_INT32"}}}, {"name": "StatefulPartitionedCall/sequential/layer_normalization_1/mul", "op": "Mul", "input": ["StatefulPartitionedCall/sequential/layer_normalization_1/Reshape_1", "StatefulPartitionedCall/sequential/layer_normalization_1/mul/ReadVariableOp"], "attr": {"T": {"type": "DT_FLOAT"}}}, {"name": "StatefulPartitionedCall/sequential/layer_normalization_1/add", "op": "AddV2", "input": ["StatefulPartitionedCall/sequential/layer_normalization_1/mul", "StatefulPartitionedCall/sequential/layer_normalization_1/add/ReadVariableOp"], "attr": {"T": {"type": "DT_FLOAT"}}}, {"name": "StatefulPartitionedCall/sequential/dense_2/Relu", "op": "_FusedMatMul", "input": ["StatefulPartitionedCall/sequential/layer_normalization_1/add", "StatefulPartitionedCall/sequential/dense_2/MatMul/ReadVariableOp", "StatefulPartitionedCall/sequential/dense_2/BiasAdd/ReadVariableOp"], "device": "/device:CPU:0", "attr": {"transpose_a": {"b": false}, "transpose_b": {"b": false}, "fused_ops": {"list": {"s": ["Qmlhc0FkZA==", "UmVsdQ=="]}}, "leakyrelu_alpha": {"f": 0.2}, "num_args": {"i": "1"}, "epsilon": {"f": 0.0}, "T": {"type": "DT_FLOAT"}}}, {"name": "StatefulPartitionedCall/sequential/layer_normalization_2/Shape", "op": "Shape", "input": ["StatefulPartitionedCall/sequential/dense_2/Relu"], "attr": {"T": {"type": "DT_FLOAT"}, "out_type": {"type": "DT_INT32"}}, "experimentalType": {"typeId": "TFT_PRODUCT", "args": [{"typeId": "TFT_SHAPE_TENSOR", "args": [{"typeId": "TFT_INT32"}]}]}}, {"name": "StatefulPartitionedCall/sequential/layer_normalization_2/strided_slice_1", "op": "StridedSlice", "input": ["StatefulPartitionedCall/sequential/layer_normalization_2/Shape", "StatefulPartitionedCall/sequential/layer_normalization_2/strided_slice_1/stack", "StatefulPartitionedCall/sequential/layer_normalization_2/strided_slice_1/stack_1", "StatefulPartitionedCall/sequential/layer_normalization_2/strided_slice_1/stack_2"], "attr": {"shrink_axis_mask": {"i": "0"}, "new_axis_mask": {"i": "0"}, "Index": {"type": "DT_INT32"}, "begin_mask": {"i": "0"}, "T": {"type": "DT_INT32"}, "end_mask": {"i": "1"}, "ellipsis_mask": {"i": "0"}}}, {"name": "StatefulPartitionedCall/sequential/layer_normalization_2/strided_slice", "op": "StridedSlice", "input": ["StatefulPartitionedCall/sequential/layer_normalization_2/Shape", "StatefulPartitionedCall/sequential/layer_normalization_2/strided_slice/stack", "StatefulPartitionedCall/sequential/layer_normalization_2/strided_slice/stack_1", "StatefulPartitionedCall/sequential/layer_normalization_2/strided_slice/stack_2"], "attr": {"shrink_axis_mask": {"i": "0"}, "Index": {"type": "DT_INT32"}, "new_axis_mask": {"i": "0"}, "begin_mask": {"i": "1"}, "end_mask": {"i": "0"}, "T": {"type": "DT_INT32"}, "ellipsis_mask": {"i": "0"}}}, {"name": "StatefulPartitionedCall/sequential/layer_normalization_2/Prod_1", "op": "Prod", "input": ["StatefulPartitionedCall/sequential/layer_normalization_2/strided_slice_1", "StatefulPartitionedCall/sequential/layer_normalization_2/Const_1"], "attr": {"T": {"type": "DT_INT32"}, "Tidx": {"type": "DT_INT32"}, "keep_dims": {"b": false}}}, {"name": "StatefulPartitionedCall/sequential/layer_normalization_2/Prod", "op": "Prod", "input": ["StatefulPartitionedCall/sequential/layer_normalization_2/strided_slice", "StatefulPartitionedCall/sequential/layer_normalization_2/Const"], "attr": {"T": {"type": "DT_INT32"}, "Tidx": {"type": "DT_INT32"}, "keep_dims": {"b": false}}}, {"name": "StatefulPartitionedCall/sequential/layer_normalization_2/Reshape/shape", "op": "Pack", "input": ["StatefulPartitionedCall/sequential/layer_normalization_2/Reshape/shape/0", "StatefulPartitionedCall/sequential/layer_normalization_2/Prod", "StatefulPartitionedCall/sequential/layer_normalization_2/Prod_1", "StatefulPartitionedCall/sequential/layer_normalization_2/Reshape/shape/3"], "attr": {"N": {"i": "4"}, "axis": {"i": "0"}, "T": {"type": "DT_INT32"}}}, {"name": "ConstantFolding/StatefulPartitionedCall/sequential/layer_normalization_2/ones/packed_const_axis", "op": "Const", "input": ["^StatefulPartitionedCall/sequential/layer_normalization_2/Prod"], "attr": {"value": {"tensor": {"dtype": "DT_INT32", "tensorShape": {}}}, "dtype": {"type": "DT_INT32"}}}, {"name": "ConstantFolding/StatefulPartitionedCall/sequential/layer_normalization_2/zeros/packed_const_axis", "op": "Const", "input": ["^StatefulPartitionedCall/sequential/layer_normalization_2/Prod"], "attr": {"value": {"tensor": {"dtype": "DT_INT32", "tensorShape": {}}}, "dtype": {"type": "DT_INT32"}}}, {"name": "StatefulPartitionedCall/sequential/layer_normalization_2/Reshape", "op": "Reshape", "input": ["StatefulPartitionedCall/sequential/dense_2/Relu", "StatefulPartitionedCall/sequential/layer_normalization_2/Reshape/shape"], "attr": {"T": {"type": "DT_FLOAT"}, "Tshape": {"type": "DT_INT32"}}}, {"name": "StatefulPartitionedCall/sequential/layer_normalization_2/ones/packed", "op": "ExpandDims", "input": ["StatefulPartitionedCall/sequential/layer_normalization_2/Prod", "ConstantFolding/StatefulPartitionedCall/sequential/layer_normalization_2/ones/packed_const_axis"], "attr": {"Tdim": {"type": "DT_INT32"}, "T": {"type": "DT_INT32"}}}, {"name": "StatefulPartitionedCall/sequential/layer_normalization_2/zeros/packed", "op": "ExpandDims", "input": ["StatefulPartitionedCall/sequential/layer_normalization_2/Prod", "ConstantFolding/StatefulPartitionedCall/sequential/layer_normalization_2/zeros/packed_const_axis"], "attr": {"Tdim": {"type": "DT_INT32"}, "T": {"type": "DT_INT32"}}}, {"name": "StatefulPartitionedCall/sequential/layer_normalization_2/ones", "op": "Fill", "input": ["StatefulPartitionedCall/sequential/layer_normalization_2/ones/packed", "StatefulPartitionedCall/sequential/layer_normalization_2/ones/Const"], "attr": {"T": {"type": "DT_FLOAT"}, "index_type": {"type": "DT_INT32"}}}, {"name": "StatefulPartitionedCall/sequential/layer_normalization_2/zeros", "op": "Fill", "input": ["StatefulPartitionedCall/sequential/layer_normalization_2/zeros/packed", "StatefulPartitionedCall/sequential/layer_normalization_2/zeros/Const"], "attr": {"T": {"type": "DT_FLOAT"}, "index_type": {"type": "DT_INT32"}}}, {"name": "StatefulPartitionedCall/sequential/layer_normalization_2/FusedBatchNormV3", "op": "FusedBatchNormV3", "input": ["StatefulPartitionedCall/sequential/layer_normalization_2/Reshape", "StatefulPartitionedCall/sequential/layer_normalization_2/ones", "StatefulPartitionedCall/sequential/layer_normalization_2/zeros", "StatefulPartitionedCall/sequential/layer_normalization_2/Const_2", "StatefulPartitionedCall/sequential/layer_normalization_2/Const_3"], "attr": {"exponential_avg_factor": {"f": 1.0}, "data_format": {"s": "TkNIVw=="}, "U": {"type": "DT_FLOAT"}, "T": {"type": "DT_FLOAT"}, "epsilon": {"f": 0.001}, "is_training": {"b": true}}}, {"name": "StatefulPartitionedCall/sequential/layer_normalization_2/Reshape_1", "op": "Reshape", "input": ["StatefulPartitionedCall/sequential/layer_normalization_2/FusedBatchNormV3", "StatefulPartitionedCall/sequential/layer_normalization_2/Shape"], "attr": {"T": {"type": "DT_FLOAT"}, "Tshape": {"type": "DT_INT32"}}}, {"name": "StatefulPartitionedCall/sequential/layer_normalization_2/mul", "op": "Mul", "input": ["StatefulPartitionedCall/sequential/layer_normalization_2/Reshape_1", "StatefulPartitionedCall/sequential/layer_normalization_2/mul/ReadVariableOp"], "attr": {"T": {"type": "DT_FLOAT"}}}, {"name": "StatefulPartitionedCall/sequential/layer_normalization_2/add", "op": "AddV2", "input": ["StatefulPartitionedCall/sequential/layer_normalization_2/mul", "StatefulPartitionedCall/sequential/layer_normalization_2/add/ReadVariableOp"], "attr": {"T": {"type": "DT_FLOAT"}}}, {"name": "StatefulPartitionedCall/sequential/dense_3/Relu", "op": "_FusedMatMul", "input": ["StatefulPartitionedCall/sequential/layer_normalization_2/add", "StatefulPartitionedCall/sequential/dense_3/MatMul/ReadVariableOp", "StatefulPartitionedCall/sequential/dense_3/BiasAdd/ReadVariableOp"], "device": "/device:CPU:0", "attr": {"transpose_a": {"b": false}, "transpose_b": {"b": false}, "fused_ops": {"list": {"s": ["Qmlhc0FkZA==", "UmVsdQ=="]}}, "num_args": {"i": "1"}, "leakyrelu_alpha": {"f": 0.2}, "epsilon": {"f": 0.0}, "T": {"type": "DT_FLOAT"}}}, {"name": "StatefulPartitionedCall/sequential/layer_normalization_3/Shape", "op": "Shape", "input": ["StatefulPartitionedCall/sequential/dense_3/Relu"], "attr": {"T": {"type": "DT_FLOAT"}, "out_type": {"type": "DT_INT32"}}, "experimentalType": {"typeId": "TFT_PRODUCT", "args": [{"typeId": "TFT_SHAPE_TENSOR", "args": [{"typeId": "TFT_INT32"}]}]}}, {"name": "StatefulPartitionedCall/sequential/layer_normalization_3/strided_slice_1", "op": "StridedSlice", "input": ["StatefulPartitionedCall/sequential/layer_normalization_3/Shape", "StatefulPartitionedCall/sequential/layer_normalization_3/strided_slice_1/stack", "StatefulPartitionedCall/sequential/layer_normalization_3/strided_slice_1/stack_1", "StatefulPartitionedCall/sequential/layer_normalization_3/strided_slice_1/stack_2"], "attr": {"shrink_axis_mask": {"i": "0"}, "Index": {"type": "DT_INT32"}, "new_axis_mask": {"i": "0"}, "begin_mask": {"i": "0"}, "end_mask": {"i": "1"}, "T": {"type": "DT_INT32"}, "ellipsis_mask": {"i": "0"}}}, {"name": "StatefulPartitionedCall/sequential/layer_normalization_3/strided_slice", "op": "StridedSlice", "input": ["StatefulPartitionedCall/sequential/layer_normalization_3/Shape", "StatefulPartitionedCall/sequential/layer_normalization_3/strided_slice/stack", "StatefulPartitionedCall/sequential/layer_normalization_3/strided_slice/stack_1", "StatefulPartitionedCall/sequential/layer_normalization_3/strided_slice/stack_2"], "attr": {"shrink_axis_mask": {"i": "0"}, "Index": {"type": "DT_INT32"}, "new_axis_mask": {"i": "0"}, "begin_mask": {"i": "1"}, "end_mask": {"i": "0"}, "T": {"type": "DT_INT32"}, "ellipsis_mask": {"i": "0"}}}, {"name": "StatefulPartitionedCall/sequential/layer_normalization_3/Prod_1", "op": "Prod", "input": ["StatefulPartitionedCall/sequential/layer_normalization_3/strided_slice_1", "StatefulPartitionedCall/sequential/layer_normalization_3/Const_1"], "attr": {"Tidx": {"type": "DT_INT32"}, "T": {"type": "DT_INT32"}, "keep_dims": {"b": false}}}, {"name": "StatefulPartitionedCall/sequential/layer_normalization_3/Prod", "op": "Prod", "input": ["StatefulPartitionedCall/sequential/layer_normalization_3/strided_slice", "StatefulPartitionedCall/sequential/layer_normalization_3/Const"], "attr": {"T": {"type": "DT_INT32"}, "Tidx": {"type": "DT_INT32"}, "keep_dims": {"b": false}}}, {"name": "StatefulPartitionedCall/sequential/layer_normalization_3/Reshape/shape", "op": "Pack", "input": ["StatefulPartitionedCall/sequential/layer_normalization_3/Reshape/shape/0", "StatefulPartitionedCall/sequential/layer_normalization_3/Prod", "StatefulPartitionedCall/sequential/layer_normalization_3/Prod_1", "StatefulPartitionedCall/sequential/layer_normalization_3/Reshape/shape/3"], "attr": {"N": {"i": "4"}, "axis": {"i": "0"}, "T": {"type": "DT_INT32"}}}, {"name": "ConstantFolding/StatefulPartitionedCall/sequential/layer_normalization_3/ones/packed_const_axis", "op": "Const", "input": ["^StatefulPartitionedCall/sequential/layer_normalization_3/Prod"], "attr": {"value": {"tensor": {"dtype": "DT_INT32", "tensorShape": {}}}, "dtype": {"type": "DT_INT32"}}}, {"name": "ConstantFolding/StatefulPartitionedCall/sequential/layer_normalization_3/zeros/packed_const_axis", "op": "Const", "input": ["^StatefulPartitionedCall/sequential/layer_normalization_3/Prod"], "attr": {"value": {"tensor": {"dtype": "DT_INT32", "tensorShape": {}}}, "dtype": {"type": "DT_INT32"}}}, {"name": "StatefulPartitionedCall/sequential/layer_normalization_3/Reshape", "op": "Reshape", "input": ["StatefulPartitionedCall/sequential/dense_3/Relu", "StatefulPartitionedCall/sequential/layer_normalization_3/Reshape/shape"], "attr": {"T": {"type": "DT_FLOAT"}, "Tshape": {"type": "DT_INT32"}}}, {"name": "StatefulPartitionedCall/sequential/layer_normalization_3/ones/packed", "op": "ExpandDims", "input": ["StatefulPartitionedCall/sequential/layer_normalization_3/Prod", "ConstantFolding/StatefulPartitionedCall/sequential/layer_normalization_3/ones/packed_const_axis"], "attr": {"Tdim": {"type": "DT_INT32"}, "T": {"type": "DT_INT32"}}}, {"name": "StatefulPartitionedCall/sequential/layer_normalization_3/zeros/packed", "op": "ExpandDims", "input": ["StatefulPartitionedCall/sequential/layer_normalization_3/Prod", "ConstantFolding/StatefulPartitionedCall/sequential/layer_normalization_3/zeros/packed_const_axis"], "attr": {"Tdim": {"type": "DT_INT32"}, "T": {"type": "DT_INT32"}}}, {"name": "StatefulPartitionedCall/sequential/layer_normalization_3/ones", "op": "Fill", "input": ["StatefulPartitionedCall/sequential/layer_normalization_3/ones/packed", "StatefulPartitionedCall/sequential/layer_normalization_3/ones/Const"], "attr": {"T": {"type": "DT_FLOAT"}, "index_type": {"type": "DT_INT32"}}}, {"name": "StatefulPartitionedCall/sequential/layer_normalization_3/zeros", "op": "Fill", "input": ["StatefulPartitionedCall/sequential/layer_normalization_3/zeros/packed", "StatefulPartitionedCall/sequential/layer_normalization_3/zeros/Const"], "attr": {"T": {"type": "DT_FLOAT"}, "index_type": {"type": "DT_INT32"}}}, {"name": "StatefulPartitionedCall/sequential/layer_normalization_3/FusedBatchNormV3", "op": "FusedBatchNormV3", "input": ["StatefulPartitionedCall/sequential/layer_normalization_3/Reshape", "StatefulPartitionedCall/sequential/layer_normalization_3/ones", "StatefulPartitionedCall/sequential/layer_normalization_3/zeros", "StatefulPartitionedCall/sequential/layer_normalization_3/Const_2", "StatefulPartitionedCall/sequential/layer_normalization_3/Const_3"], "attr": {"epsilon": {"f": 0.001}, "data_format": {"s": "TkNIVw=="}, "U": {"type": "DT_FLOAT"}, "T": {"type": "DT_FLOAT"}, "exponential_avg_factor": {"f": 1.0}, "is_training": {"b": true}}}, {"name": "StatefulPartitionedCall/sequential/layer_normalization_3/Reshape_1", "op": "Reshape", "input": ["StatefulPartitionedCall/sequential/layer_normalization_3/FusedBatchNormV3", "StatefulPartitionedCall/sequential/layer_normalization_3/Shape"], "attr": {"T": {"type": "DT_FLOAT"}, "Tshape": {"type": "DT_INT32"}}}, {"name": "StatefulPartitionedCall/sequential/layer_normalization_3/mul", "op": "Mul", "input": ["StatefulPartitionedCall/sequential/layer_normalization_3/Reshape_1", "StatefulPartitionedCall/sequential/layer_normalization_3/mul/ReadVariableOp"], "attr": {"T": {"type": "DT_FLOAT"}}}, {"name": "StatefulPartitionedCall/sequential/layer_normalization_3/add", "op": "AddV2", "input": ["StatefulPartitionedCall/sequential/layer_normalization_3/mul", "StatefulPartitionedCall/sequential/layer_normalization_3/add/ReadVariableOp"], "attr": {"T": {"type": "DT_FLOAT"}}}, {"name": "StatefulPartitionedCall/sequential/dense_4/Relu", "op": "_FusedMatMul", "input": ["StatefulPartitionedCall/sequential/layer_normalization_3/add", "StatefulPartitionedCall/sequential/dense_4/MatMul/ReadVariableOp", "StatefulPartitionedCall/sequential/dense_4/BiasAdd/ReadVariableOp"], "device": "/device:CPU:0", "attr": {"transpose_a": {"b": false}, "transpose_b": {"b": false}, "fused_ops": {"list": {"s": ["Qmlhc0FkZA==", "UmVsdQ=="]}}, "leakyrelu_alpha": {"f": 0.2}, "num_args": {"i": "1"}, "epsilon": {"f": 0.0}, "T": {"type": "DT_FLOAT"}}}, {"name": "StatefulPartitionedCall/sequential/layer_normalization_4/Shape", "op": "Shape", "input": ["StatefulPartitionedCall/sequential/dense_4/Relu"], "attr": {"T": {"type": "DT_FLOAT"}, "out_type": {"type": "DT_INT32"}}, "experimentalType": {"typeId": "TFT_PRODUCT", "args": [{"typeId": "TFT_SHAPE_TENSOR", "args": [{"typeId": "TFT_INT32"}]}]}}, {"name": "StatefulPartitionedCall/sequential/layer_normalization_4/strided_slice_1", "op": "StridedSlice", "input": ["StatefulPartitionedCall/sequential/layer_normalization_4/Shape", "StatefulPartitionedCall/sequential/layer_normalization_4/strided_slice_1/stack", "StatefulPartitionedCall/sequential/layer_normalization_4/strided_slice_1/stack_1", "StatefulPartitionedCall/sequential/layer_normalization_4/strided_slice_1/stack_2"], "attr": {"shrink_axis_mask": {"i": "0"}, "new_axis_mask": {"i": "0"}, "Index": {"type": "DT_INT32"}, "begin_mask": {"i": "0"}, "end_mask": {"i": "1"}, "T": {"type": "DT_INT32"}, "ellipsis_mask": {"i": "0"}}}, {"name": "StatefulPartitionedCall/sequential/layer_normalization_4/strided_slice", "op": "StridedSlice", "input": ["StatefulPartitionedCall/sequential/layer_normalization_4/Shape", "StatefulPartitionedCall/sequential/layer_normalization_4/strided_slice/stack", "StatefulPartitionedCall/sequential/layer_normalization_4/strided_slice/stack_1", "StatefulPartitionedCall/sequential/layer_normalization_4/strided_slice/stack_2"], "attr": {"shrink_axis_mask": {"i": "0"}, "new_axis_mask": {"i": "0"}, "Index": {"type": "DT_INT32"}, "begin_mask": {"i": "1"}, "T": {"type": "DT_INT32"}, "end_mask": {"i": "0"}, "ellipsis_mask": {"i": "0"}}}, {"name": "StatefulPartitionedCall/sequential/layer_normalization_4/Prod_1", "op": "Prod", "input": ["StatefulPartitionedCall/sequential/layer_normalization_4/strided_slice_1", "StatefulPartitionedCall/sequential/layer_normalization_4/Const_1"], "attr": {"T": {"type": "DT_INT32"}, "Tidx": {"type": "DT_INT32"}, "keep_dims": {"b": false}}}, {"name": "StatefulPartitionedCall/sequential/layer_normalization_4/Prod", "op": "Prod", "input": ["StatefulPartitionedCall/sequential/layer_normalization_4/strided_slice", "StatefulPartitionedCall/sequential/layer_normalization_4/Const"], "attr": {"T": {"type": "DT_INT32"}, "Tidx": {"type": "DT_INT32"}, "keep_dims": {"b": false}}}, {"name": "StatefulPartitionedCall/sequential/layer_normalization_4/Reshape/shape", "op": "Pack", "input": ["StatefulPartitionedCall/sequential/layer_normalization_4/Reshape/shape/0", "StatefulPartitionedCall/sequential/layer_normalization_4/Prod", "StatefulPartitionedCall/sequential/layer_normalization_4/Prod_1", "StatefulPartitionedCall/sequential/layer_normalization_4/Reshape/shape/3"], "attr": {"N": {"i": "4"}, "axis": {"i": "0"}, "T": {"type": "DT_INT32"}}}, {"name": "ConstantFolding/StatefulPartitionedCall/sequential/layer_normalization_4/ones/packed_const_axis", "op": "Const", "input": ["^StatefulPartitionedCall/sequential/layer_normalization_4/Prod"], "attr": {"value": {"tensor": {"dtype": "DT_INT32", "tensorShape": {}}}, "dtype": {"type": "DT_INT32"}}}, {"name": "ConstantFolding/StatefulPartitionedCall/sequential/layer_normalization_4/zeros/packed_const_axis", "op": "Const", "input": ["^StatefulPartitionedCall/sequential/layer_normalization_4/Prod"], "attr": {"value": {"tensor": {"dtype": "DT_INT32", "tensorShape": {}}}, "dtype": {"type": "DT_INT32"}}}, {"name": "StatefulPartitionedCall/sequential/layer_normalization_4/Reshape", "op": "Reshape", "input": ["StatefulPartitionedCall/sequential/dense_4/Relu", "StatefulPartitionedCall/sequential/layer_normalization_4/Reshape/shape"], "attr": {"T": {"type": "DT_FLOAT"}, "Tshape": {"type": "DT_INT32"}}}, {"name": "StatefulPartitionedCall/sequential/layer_normalization_4/ones/packed", "op": "ExpandDims", "input": ["StatefulPartitionedCall/sequential/layer_normalization_4/Prod", "ConstantFolding/StatefulPartitionedCall/sequential/layer_normalization_4/ones/packed_const_axis"], "attr": {"Tdim": {"type": "DT_INT32"}, "T": {"type": "DT_INT32"}}}, {"name": "StatefulPartitionedCall/sequential/layer_normalization_4/zeros/packed", "op": "ExpandDims", "input": ["StatefulPartitionedCall/sequential/layer_normalization_4/Prod", "ConstantFolding/StatefulPartitionedCall/sequential/layer_normalization_4/zeros/packed_const_axis"], "attr": {"Tdim": {"type": "DT_INT32"}, "T": {"type": "DT_INT32"}}}, {"name": "StatefulPartitionedCall/sequential/layer_normalization_4/ones", "op": "Fill", "input": ["StatefulPartitionedCall/sequential/layer_normalization_4/ones/packed", "StatefulPartitionedCall/sequential/layer_normalization_4/ones/Const"], "attr": {"T": {"type": "DT_FLOAT"}, "index_type": {"type": "DT_INT32"}}}, {"name": "StatefulPartitionedCall/sequential/layer_normalization_4/zeros", "op": "Fill", "input": ["StatefulPartitionedCall/sequential/layer_normalization_4/zeros/packed", "StatefulPartitionedCall/sequential/layer_normalization_4/zeros/Const"], "attr": {"T": {"type": "DT_FLOAT"}, "index_type": {"type": "DT_INT32"}}}, {"name": "StatefulPartitionedCall/sequential/layer_normalization_4/FusedBatchNormV3", "op": "FusedBatchNormV3", "input": ["StatefulPartitionedCall/sequential/layer_normalization_4/Reshape", "StatefulPartitionedCall/sequential/layer_normalization_4/ones", "StatefulPartitionedCall/sequential/layer_normalization_4/zeros", "StatefulPartitionedCall/sequential/layer_normalization_4/Const_2", "StatefulPartitionedCall/sequential/layer_normalization_4/Const_3"], "attr": {"exponential_avg_factor": {"f": 1.0}, "data_format": {"s": "TkNIVw=="}, "T": {"type": "DT_FLOAT"}, "U": {"type": "DT_FLOAT"}, "epsilon": {"f": 0.001}, "is_training": {"b": true}}}, {"name": "StatefulPartitionedCall/sequential/layer_normalization_4/Reshape_1", "op": "Reshape", "input": ["StatefulPartitionedCall/sequential/layer_normalization_4/FusedBatchNormV3", "StatefulPartitionedCall/sequential/layer_normalization_4/Shape"], "attr": {"T": {"type": "DT_FLOAT"}, "Tshape": {"type": "DT_INT32"}}}, {"name": "StatefulPartitionedCall/sequential/layer_normalization_4/mul", "op": "Mul", "input": ["StatefulPartitionedCall/sequential/layer_normalization_4/Reshape_1", "StatefulPartitionedCall/sequential/layer_normalization_4/mul/ReadVariableOp"], "attr": {"T": {"type": "DT_FLOAT"}}}, {"name": "StatefulPartitionedCall/sequential/layer_normalization_4/add", "op": "AddV2", "input": ["StatefulPartitionedCall/sequential/layer_normalization_4/mul", "StatefulPartitionedCall/sequential/layer_normalization_4/add/ReadVariableOp"], "attr": {"T": {"type": "DT_FLOAT"}}}, {"name": "StatefulPartitionedCall/sequential/dense_5/Relu", "op": "_FusedMatMul", "input": ["StatefulPartitionedCall/sequential/layer_normalization_4/add", "StatefulPartitionedCall/sequential/dense_5/MatMul/ReadVariableOp", "StatefulPartitionedCall/sequential/dense_5/BiasAdd/ReadVariableOp"], "device": "/device:CPU:0", "attr": {"transpose_a": {"b": false}, "transpose_b": {"b": false}, "fused_ops": {"list": {"s": ["Qmlhc0FkZA==", "UmVsdQ=="]}}, "leakyrelu_alpha": {"f": 0.2}, "num_args": {"i": "1"}, "epsilon": {"f": 0.0}, "T": {"type": "DT_FLOAT"}}}, {"name": "StatefulPartitionedCall/sequential/layer_normalization_5/Shape", "op": "Shape", "input": ["StatefulPartitionedCall/sequential/dense_5/Relu"], "attr": {"T": {"type": "DT_FLOAT"}, "out_type": {"type": "DT_INT32"}}, "experimentalType": {"typeId": "TFT_PRODUCT", "args": [{"typeId": "TFT_SHAPE_TENSOR", "args": [{"typeId": "TFT_INT32"}]}]}}, {"name": "StatefulPartitionedCall/sequential/layer_normalization_5/strided_slice_1", "op": "StridedSlice", "input": ["StatefulPartitionedCall/sequential/layer_normalization_5/Shape", "StatefulPartitionedCall/sequential/layer_normalization_5/strided_slice_1/stack", "StatefulPartitionedCall/sequential/layer_normalization_5/strided_slice_1/stack_1", "StatefulPartitionedCall/sequential/layer_normalization_5/strided_slice_1/stack_2"], "attr": {"shrink_axis_mask": {"i": "0"}, "new_axis_mask": {"i": "0"}, "Index": {"type": "DT_INT32"}, "begin_mask": {"i": "0"}, "end_mask": {"i": "1"}, "T": {"type": "DT_INT32"}, "ellipsis_mask": {"i": "0"}}}, {"name": "StatefulPartitionedCall/sequential/layer_normalization_5/strided_slice", "op": "StridedSlice", "input": ["StatefulPartitionedCall/sequential/layer_normalization_5/Shape", "StatefulPartitionedCall/sequential/layer_normalization_5/strided_slice/stack", "StatefulPartitionedCall/sequential/layer_normalization_5/strided_slice/stack_1", "StatefulPartitionedCall/sequential/layer_normalization_5/strided_slice/stack_2"], "attr": {"shrink_axis_mask": {"i": "0"}, "Index": {"type": "DT_INT32"}, "new_axis_mask": {"i": "0"}, "begin_mask": {"i": "1"}, "T": {"type": "DT_INT32"}, "end_mask": {"i": "0"}, "ellipsis_mask": {"i": "0"}}}, {"name": "StatefulPartitionedCall/sequential/layer_normalization_5/Prod_1", "op": "Prod", "input": ["StatefulPartitionedCall/sequential/layer_normalization_5/strided_slice_1", "StatefulPartitionedCall/sequential/layer_normalization_5/Const_1"], "attr": {"Tidx": {"type": "DT_INT32"}, "T": {"type": "DT_INT32"}, "keep_dims": {"b": false}}}, {"name": "StatefulPartitionedCall/sequential/layer_normalization_5/Prod", "op": "Prod", "input": ["StatefulPartitionedCall/sequential/layer_normalization_5/strided_slice", "StatefulPartitionedCall/sequential/layer_normalization_5/Const"], "attr": {"Tidx": {"type": "DT_INT32"}, "T": {"type": "DT_INT32"}, "keep_dims": {"b": false}}}, {"name": "StatefulPartitionedCall/sequential/layer_normalization_5/Reshape/shape", "op": "Pack", "input": ["StatefulPartitionedCall/sequential/layer_normalization_5/Reshape/shape/0", "StatefulPartitionedCall/sequential/layer_normalization_5/Prod", "StatefulPartitionedCall/sequential/layer_normalization_5/Prod_1", "StatefulPartitionedCall/sequential/layer_normalization_5/Reshape/shape/3"], "attr": {"N": {"i": "4"}, "axis": {"i": "0"}, "T": {"type": "DT_INT32"}}}, {"name": "ConstantFolding/StatefulPartitionedCall/sequential/layer_normalization_5/zeros/packed_const_axis", "op": "Const", "input": ["^StatefulPartitionedCall/sequential/layer_normalization_5/Prod"], "attr": {"value": {"tensor": {"dtype": "DT_INT32", "tensorShape": {}}}, "dtype": {"type": "DT_INT32"}}}, {"name": "ConstantFolding/StatefulPartitionedCall/sequential/layer_normalization_5/ones/packed_const_axis", "op": "Const", "input": ["^StatefulPartitionedCall/sequential/layer_normalization_5/Prod"], "attr": {"value": {"tensor": {"dtype": "DT_INT32", "tensorShape": {}}}, "dtype": {"type": "DT_INT32"}}}, {"name": "StatefulPartitionedCall/sequential/layer_normalization_5/Reshape", "op": "Reshape", "input": ["StatefulPartitionedCall/sequential/dense_5/Relu", "StatefulPartitionedCall/sequential/layer_normalization_5/Reshape/shape"], "attr": {"T": {"type": "DT_FLOAT"}, "Tshape": {"type": "DT_INT32"}}}, {"name": "StatefulPartitionedCall/sequential/layer_normalization_5/zeros/packed", "op": "ExpandDims", "input": ["StatefulPartitionedCall/sequential/layer_normalization_5/Prod", "ConstantFolding/StatefulPartitionedCall/sequential/layer_normalization_5/zeros/packed_const_axis"], "attr": {"Tdim": {"type": "DT_INT32"}, "T": {"type": "DT_INT32"}}}, {"name": "StatefulPartitionedCall/sequential/layer_normalization_5/ones/packed", "op": "ExpandDims", "input": ["StatefulPartitionedCall/sequential/layer_normalization_5/Prod", "ConstantFolding/StatefulPartitionedCall/sequential/layer_normalization_5/ones/packed_const_axis"], "attr": {"Tdim": {"type": "DT_INT32"}, "T": {"type": "DT_INT32"}}}, {"name": "StatefulPartitionedCall/sequential/layer_normalization_5/zeros", "op": "Fill", "input": ["StatefulPartitionedCall/sequential/layer_normalization_5/zeros/packed", "StatefulPartitionedCall/sequential/layer_normalization_5/zeros/Const"], "attr": {"T": {"type": "DT_FLOAT"}, "index_type": {"type": "DT_INT32"}}}, {"name": "StatefulPartitionedCall/sequential/layer_normalization_5/ones", "op": "Fill", "input": ["StatefulPartitionedCall/sequential/layer_normalization_5/ones/packed", "StatefulPartitionedCall/sequential/layer_normalization_5/ones/Const"], "attr": {"T": {"type": "DT_FLOAT"}, "index_type": {"type": "DT_INT32"}}}, {"name": "StatefulPartitionedCall/sequential/layer_normalization_5/FusedBatchNormV3", "op": "FusedBatchNormV3", "input": ["StatefulPartitionedCall/sequential/layer_normalization_5/Reshape", "StatefulPartitionedCall/sequential/layer_normalization_5/ones", "StatefulPartitionedCall/sequential/layer_normalization_5/zeros", "StatefulPartitionedCall/sequential/layer_normalization_5/Const_2", "StatefulPartitionedCall/sequential/layer_normalization_5/Const_3"], "attr": {"exponential_avg_factor": {"f": 1.0}, "data_format": {"s": "TkNIVw=="}, "U": {"type": "DT_FLOAT"}, "T": {"type": "DT_FLOAT"}, "epsilon": {"f": 0.001}, "is_training": {"b": true}}}, {"name": "StatefulPartitionedCall/sequential/layer_normalization_5/Reshape_1", "op": "Reshape", "input": ["StatefulPartitionedCall/sequential/layer_normalization_5/FusedBatchNormV3", "StatefulPartitionedCall/sequential/layer_normalization_5/Shape"], "attr": {"T": {"type": "DT_FLOAT"}, "Tshape": {"type": "DT_INT32"}}}, {"name": "StatefulPartitionedCall/sequential/layer_normalization_5/mul", "op": "Mul", "input": ["StatefulPartitionedCall/sequential/layer_normalization_5/Reshape_1", "StatefulPartitionedCall/sequential/layer_normalization_5/mul/ReadVariableOp"], "attr": {"T": {"type": "DT_FLOAT"}}}, {"name": "StatefulPartitionedCall/sequential/layer_normalization_5/add", "op": "AddV2", "input": ["StatefulPartitionedCall/sequential/layer_normalization_5/mul", "StatefulPartitionedCall/sequential/layer_normalization_5/add/ReadVariableOp"], "attr": {"T": {"type": "DT_FLOAT"}}}, {"name": "StatefulPartitionedCall/sequential/dense_6/BiasAdd", "op": "_FusedMatMul", "input": ["StatefulPartitionedCall/sequential/layer_normalization_5/add", "StatefulPartitionedCall/sequential/dense_6/MatMul/ReadVariableOp", "StatefulPartitionedCall/sequential/dense_6/BiasAdd/ReadVariableOp"], "device": "/device:CPU:0", "attr": {"transpose_a": {"b": false}, "transpose_b": {"b": false}, "fused_ops": {"list": {"s": ["Qmlhc0FkZA=="]}}, "num_args": {"i": "1"}, "leakyrelu_alpha": {"f": 0.2}, "epsilon": {"f": 0.0}, "T": {"type": "DT_FLOAT"}}}, {"name": "StatefulPartitionedCall/sequential/dense_6/Softmax", "op": "Softmax", "input": ["StatefulPartitionedCall/sequential/dense_6/BiasAdd"], "attr": {"T": {"type": "DT_FLOAT"}}}, {"name": "Identity", "op": "Identity", "input": ["StatefulPartitionedCall/sequential/dense_6/Softmax"], "attr": {"T": {"type": "DT_FLOAT"}}}], "library": {}, "versions": {"producer": 1575}}, "weightsManifest": [{"paths": ["group1-shard1of8.bin", "group1-shard2of8.bin", "group1-shard3of8.bin", "group1-shard4of8.bin", "group1-shard5of8.bin", "group1-shard6of8.bin", "group1-shard7of8.bin", "group1-shard8of8.bin"], "weights": [{"name": "StatefulPartitionedCall/sequential/layer_normalization_5/Reshape/shape/0", "shape": [], "dtype": "int32"}, {"name": "StatefulPartitionedCall/sequential/layer_normalization_5/strided_slice_1/stack", "shape": [1], "dtype": "int32"}, {"name": "StatefulPartitionedCall/sequential/layer_normalization_5/strided_slice_1/stack_1", "shape": [1], "dtype": "int32"}, {"name": "StatefulPartitionedCall/sequential/layer_normalization_5/strided_slice_1/stack_2", "shape": [1], "dtype": "int32"}, {"name": "StatefulPartitionedCall/sequential/layer_normalization_5/Const_1", "shape": [1], "dtype": "int32"}, {"name": "StatefulPartitionedCall/sequential/layer_normalization_5/Reshape/shape/3", "shape": [], "dtype": "int32"}, {"name": "StatefulPartitionedCall/sequential/layer_normalization_5/ones/Const", "shape": [], "dtype": "float32"}, {"name": "StatefulPartitionedCall/sequential/layer_normalization_5/strided_slice/stack", "shape": [1], "dtype": "int32"}, {"name": "StatefulPartitionedCall/sequential/layer_normalization_5/strided_slice/stack_1", "shape": [1], "dtype": "int32"}, {"name": "StatefulPartitionedCall/sequential/layer_normalization_5/strided_slice/stack_2", "shape": [1], "dtype": "int32"}, {"name": "StatefulPartitionedCall/sequential/layer_normalization_5/Const", "shape": [1], "dtype": "int32"}, {"name": "StatefulPartitionedCall/sequential/layer_normalization_5/zeros/Const", "shape": [], "dtype": "float32"}, {"name": "StatefulPartitionedCall/sequential/layer_normalization_5/Const_2", "shape": [0], "dtype": "float32"}, {"name": "StatefulPartitionedCall/sequential/layer_normalization_5/Const_3", "shape": [0], "dtype": "float32"}, {"name": "StatefulPartitionedCall/sequential/layer_normalization_4/Reshape/shape/0", "shape": [], "dtype": "int32"}, {"name": "StatefulPartitionedCall/sequential/layer_normalization_4/strided_slice_1/stack", "shape": [1], "dtype": "int32"}, {"name": "StatefulPartitionedCall/sequential/layer_normalization_4/strided_slice_1/stack_1", "shape": [1], "dtype": "int32"}, {"name": "StatefulPartitionedCall/sequential/layer_normalization_4/strided_slice_1/stack_2", "shape": [1], "dtype": "int32"}, {"name": "StatefulPartitionedCall/sequential/layer_normalization_4/Const_1", "shape": [1], "dtype": "int32"}, {"name": "StatefulPartitionedCall/sequential/layer_normalization_4/Reshape/shape/3", "shape": [], "dtype": "int32"}, {"name": "StatefulPartitionedCall/sequential/layer_normalization_4/ones/Const", "shape": [], "dtype": "float32"}, {"name": "StatefulPartitionedCall/sequential/layer_normalization_4/strided_slice/stack", "shape": [1], "dtype": "int32"}, {"name": "StatefulPartitionedCall/sequential/layer_normalization_4/strided_slice/stack_1", "shape": [1], "dtype": "int32"}, {"name": "StatefulPartitionedCall/sequential/layer_normalization_4/strided_slice/stack_2", "shape": [1], "dtype": "int32"}, {"name": "StatefulPartitionedCall/sequential/layer_normalization_4/Const", "shape": [1], "dtype": "int32"}, {"name": "StatefulPartitionedCall/sequential/layer_normalization_4/zeros/Const", "shape": [], "dtype": "float32"}, {"name": "StatefulPartitionedCall/sequential/layer_normalization_4/Const_2", "shape": [0], "dtype": "float32"}, {"name": "StatefulPartitionedCall/sequential/layer_normalization_4/Const_3", "shape": [0], "dtype": "float32"}, {"name": "StatefulPartitionedCall/sequential/layer_normalization_3/Reshape/shape/0", "shape": [], "dtype": "int32"}, {"name": "StatefulPartitionedCall/sequential/layer_normalization_3/strided_slice_1/stack", "shape": [1], "dtype": "int32"}, {"name": "StatefulPartitionedCall/sequential/layer_normalization_3/strided_slice_1/stack_1", "shape": [1], "dtype": "int32"}, {"name": "StatefulPartitionedCall/sequential/layer_normalization_3/strided_slice_1/stack_2", "shape": [1], "dtype": "int32"}, {"name": "StatefulPartitionedCall/sequential/layer_normalization_3/Const_1", "shape": [1], "dtype": "int32"}, {"name": "StatefulPartitionedCall/sequential/layer_normalization_3/Reshape/shape/3", "shape": [], "dtype": "int32"}, {"name": "StatefulPartitionedCall/sequential/layer_normalization_3/ones/Const", "shape": [], "dtype": "float32"}, {"name": "StatefulPartitionedCall/sequential/layer_normalization_3/strided_slice/stack", "shape": [1], "dtype": "int32"}, {"name": "StatefulPartitionedCall/sequential/layer_normalization_3/strided_slice/stack_1", "shape": [1], "dtype": "int32"}, {"name": "StatefulPartitionedCall/sequential/layer_normalization_3/strided_slice/stack_2", "shape": [1], "dtype": "int32"}, {"name": "StatefulPartitionedCall/sequential/layer_normalization_3/Const", "shape": [1], "dtype": "int32"}, {"name": "StatefulPartitionedCall/sequential/layer_normalization_3/zeros/Const", "shape": [], "dtype": "float32"}, {"name": "StatefulPartitionedCall/sequential/layer_normalization_3/Const_2", "shape": [0], "dtype": "float32"}, {"name": "StatefulPartitionedCall/sequential/layer_normalization_3/Const_3", "shape": [0], "dtype": "float32"}, {"name": "StatefulPartitionedCall/sequential/layer_normalization_2/Reshape/shape/0", "shape": [], "dtype": "int32"}, {"name": "StatefulPartitionedCall/sequential/layer_normalization_2/strided_slice_1/stack", "shape": [1], "dtype": "int32"}, {"name": "StatefulPartitionedCall/sequential/layer_normalization_2/strided_slice_1/stack_1", "shape": [1], "dtype": "int32"}, {"name": "StatefulPartitionedCall/sequential/layer_normalization_2/strided_slice_1/stack_2", "shape": [1], "dtype": "int32"}, {"name": "StatefulPartitionedCall/sequential/layer_normalization_2/Const_1", "shape": [1], "dtype": "int32"}, {"name": "StatefulPartitionedCall/sequential/layer_normalization_2/Reshape/shape/3", "shape": [], "dtype": "int32"}, {"name": "StatefulPartitionedCall/sequential/layer_normalization_2/ones/Const", "shape": [], "dtype": "float32"}, {"name": "StatefulPartitionedCall/sequential/layer_normalization_2/strided_slice/stack", "shape": [1], "dtype": "int32"}, {"name": "StatefulPartitionedCall/sequential/layer_normalization_2/strided_slice/stack_1", "shape": [1], "dtype": "int32"}, {"name": "StatefulPartitionedCall/sequential/layer_normalization_2/strided_slice/stack_2", "shape": [1], "dtype": "int32"}, {"name": "StatefulPartitionedCall/sequential/layer_normalization_2/Const", "shape": [1], "dtype": "int32"}, {"name": "StatefulPartitionedCall/sequential/layer_normalization_2/zeros/Const", "shape": [], "dtype": "float32"}, {"name": "StatefulPartitionedCall/sequential/layer_normalization_2/Const_2", "shape": [0], "dtype": "float32"}, {"name": "StatefulPartitionedCall/sequential/layer_normalization_2/Const_3", "shape": [0], "dtype": "float32"}, {"name": "StatefulPartitionedCall/sequential/layer_normalization_1/Reshape/shape/0", "shape": [], "dtype": "int32"}, {"name": "StatefulPartitionedCall/sequential/layer_normalization_1/strided_slice_1/stack", "shape": [1], "dtype": "int32"}, {"name": "StatefulPartitionedCall/sequential/layer_normalization_1/strided_slice_1/stack_1", "shape": [1], "dtype": "int32"}, {"name": "StatefulPartitionedCall/sequential/layer_normalization_1/strided_slice_1/stack_2", "shape": [1], "dtype": "int32"}, {"name": "StatefulPartitionedCall/sequential/layer_normalization_1/Const_1", "shape": [1], "dtype": "int32"}, {"name": "StatefulPartitionedCall/sequential/layer_normalization_1/Reshape/shape/3", "shape": [], "dtype": "int32"}, {"name": "StatefulPartitionedCall/sequential/layer_normalization_1/ones/Const", "shape": [], "dtype": "float32"}, {"name": "StatefulPartitionedCall/sequential/layer_normalization_1/strided_slice/stack", "shape": [1], "dtype": "int32"}, {"name": "StatefulPartitionedCall/sequential/layer_normalization_1/strided_slice/stack_1", "shape": [1], "dtype": "int32"}, {"name": "StatefulPartitionedCall/sequential/layer_normalization_1/strided_slice/stack_2", "shape": [1], "dtype": "int32"}, {"name": "StatefulPartitionedCall/sequential/layer_normalization_1/Const", "shape": [1], "dtype": "int32"}, {"name": "StatefulPartitionedCall/sequential/layer_normalization_1/zeros/Const", "shape": [], "dtype": "float32"}, {"name": "StatefulPartitionedCall/sequential/layer_normalization_1/Const_2", "shape": [0], "dtype": "float32"}, {"name": "StatefulPartitionedCall/sequential/layer_normalization_1/Const_3", "shape": [0], "dtype": "float32"}, {"name": "StatefulPartitionedCall/sequential/layer_normalization/Reshape/shape/0", "shape": [], "dtype": "int32"}, {"name": "StatefulPartitionedCall/sequential/layer_normalization/strided_slice_1/stack", "shape": [1], "dtype": "int32"}, {"name": "StatefulPartitionedCall/sequential/layer_normalization/strided_slice_1/stack_1", "shape": [1], "dtype": "int32"}, {"name": "StatefulPartitionedCall/sequential/layer_normalization/strided_slice_1/stack_2", "shape": [1], "dtype": "int32"}, {"name": "StatefulPartitionedCall/sequential/layer_normalization/Const_1", "shape": [1], "dtype": "int32"}, {"name": "StatefulPartitionedCall/sequential/layer_normalization/Reshape/shape/3", "shape": [], "dtype": "int32"}, {"name": "StatefulPartitionedCall/sequential/layer_normalization/ones/Const", "shape": [], "dtype": "float32"}, {"name": "StatefulPartitionedCall/sequential/layer_normalization/strided_slice/stack", "shape": [1], "dtype": "int32"}, {"name": "StatefulPartitionedCall/sequential/layer_normalization/strided_slice/stack_1", "shape": [1], "dtype": "int32"}, {"name": "StatefulPartitionedCall/sequential/layer_normalization/strided_slice/stack_2", "shape": [1], "dtype": "int32"}, {"name": "StatefulPartitionedCall/sequential/layer_normalization/Const", "shape": [1], "dtype": "int32"}, {"name": "StatefulPartitionedCall/sequential/layer_normalization/zeros/Const", "shape": [], "dtype": "float32"}, {"name": "StatefulPartitionedCall/sequential/layer_normalization/Const_2", "shape": [0], "dtype": "float32"}, {"name": "StatefulPartitionedCall/sequential/layer_normalization/Const_3", "shape": [0], "dtype": "float32"}, {"name": "StatefulPartitionedCall/sequential/dense/RaggedToTensor/Const", "shape": [], "dtype": "int32"}, {"name": "StatefulPartitionedCall/sequential/dense/RaggedToTensor/zeros", "shape": [], "dtype": "float32"}, {"name": "StatefulPartitionedCall/sequential/dense/MatMul/ReadVariableOp", "shape": [8, 512], "dtype": "float32"}, {"name": "StatefulPartitionedCall/sequential/dense/BiasAdd/ReadVariableOp", "shape": [512], "dtype": "float32"}, {"name": "StatefulPartitionedCall/sequential/layer_normalization/mul/ReadVariableOp", "shape": [512], "dtype": "float32"}, {"name": "StatefulPartitionedCall/sequential/layer_normalization/add/ReadVariableOp", "shape": [512], "dtype": "float32"}, {"name": "StatefulPartitionedCall/sequential/dense_1/MatMul/ReadVariableOp", "shape": [512, 512], "dtype": "float32"}, {"name": "StatefulPartitionedCall/sequential/dense_1/BiasAdd/ReadVariableOp", "shape": [512], "dtype": "float32"}, {"name": "StatefulPartitionedCall/sequential/layer_normalization_1/mul/ReadVariableOp", "shape": [512], "dtype": "float32"}, {"name": "StatefulPartitionedCall/sequential/layer_normalization_1/add/ReadVariableOp", "shape": [512], "dtype": "float32"}, {"name": "StatefulPartitionedCall/sequential/dense_2/MatMul/ReadVariableOp", "shape": [512, 1024], "dtype": "float32"}, {"name": "StatefulPartitionedCall/sequential/dense_2/BiasAdd/ReadVariableOp", "shape": [1024], "dtype": "float32"}, {"name": "StatefulPartitionedCall/sequential/layer_normalization_2/mul/ReadVariableOp", "shape": [1024], "dtype": "float32"}, {"name": "StatefulPartitionedCall/sequential/layer_normalization_2/add/ReadVariableOp", "shape": [1024], "dtype": "float32"}, {"name": "StatefulPartitionedCall/sequential/dense_3/MatMul/ReadVariableOp", "shape": [1024, 1024], "dtype": "float32"}, {"name": "StatefulPartitionedCall/sequential/dense_3/BiasAdd/ReadVariableOp", "shape": [1024], "dtype": "float32"}, {"name": "StatefulPartitionedCall/sequential/layer_normalization_3/mul/ReadVariableOp", "shape": [1024], "dtype": "float32"}, {"name": "StatefulPartitionedCall/sequential/layer_normalization_3/add/ReadVariableOp", "shape": [1024], "dtype": "float32"}, {"name": "StatefulPartitionedCall/sequential/dense_4/MatMul/ReadVariableOp", "shape": [1024, 2048], "dtype": "float32"}, {"name": "StatefulPartitionedCall/sequential/dense_4/BiasAdd/ReadVariableOp", "shape": [2048], "dtype": "float32"}, {"name": "StatefulPartitionedCall/sequential/layer_normalization_4/mul/ReadVariableOp", "shape": [2048], "dtype": "float32"}, {"name": "StatefulPartitionedCall/sequential/layer_normalization_4/add/ReadVariableOp", "shape": [2048], "dtype": "float32"}, {"name": "StatefulPartitionedCall/sequential/dense_5/MatMul/ReadVariableOp", "shape": [2048, 2048], "dtype": "float32"}, {"name": "StatefulPartitionedCall/sequential/dense_5/BiasAdd/ReadVariableOp", "shape": [2048], "dtype": "float32"}, {"name": "StatefulPartitionedCall/sequential/layer_normalization_5/mul/ReadVariableOp", "shape": [2048], "dtype": "float32"}, {"name": "StatefulPartitionedCall/sequential/layer_normalization_5/add/ReadVariableOp", "shape": [2048], "dtype": "float32"}, {"name": "StatefulPartitionedCall/sequential/dense_6/MatMul/ReadVariableOp", "shape": [2048, 2], "dtype": "float32"}, {"name": "StatefulPartitionedCall/sequential/dense_6/BiasAdd/ReadVariableOp", "shape": [2], "dtype": "float32"}, {"name": "ConstantFolding/StatefulPartitionedCall/sequential/layer_normalization/ones/packed_const_axis", "shape": [], "dtype": "int32"}, {"name": "ConstantFolding/StatefulPartitionedCall/sequential/layer_normalization/zeros/packed_const_axis", "shape": [], "dtype": "int32"}, {"name": "ConstantFolding/StatefulPartitionedCall/sequential/layer_normalization_1/ones/packed_const_axis", "shape": [], "dtype": "int32"}, {"name": "ConstantFolding/StatefulPartitionedCall/sequential/layer_normalization_1/zeros/packed_const_axis", "shape": [], "dtype": "int32"}, {"name": "ConstantFolding/StatefulPartitionedCall/sequential/layer_normalization_2/ones/packed_const_axis", "shape": [], "dtype": "int32"}, {"name": "ConstantFolding/StatefulPartitionedCall/sequential/layer_normalization_2/zeros/packed_const_axis", "shape": [], "dtype": "int32"}, {"name": "ConstantFolding/StatefulPartitionedCall/sequential/layer_normalization_3/ones/packed_const_axis", "shape": [], "dtype": "int32"}, {"name": "ConstantFolding/StatefulPartitionedCall/sequential/layer_normalization_3/zeros/packed_const_axis", "shape": [], "dtype": "int32"}, {"name": "ConstantFolding/StatefulPartitionedCall/sequential/layer_normalization_4/ones/packed_const_axis", "shape": [], "dtype": "int32"}, {"name": "ConstantFolding/StatefulPartitionedCall/sequential/layer_normalization_4/zeros/packed_const_axis", "shape": [], "dtype": "int32"}, {"name": "ConstantFolding/StatefulPartitionedCall/sequential/layer_normalization_5/zeros/packed_const_axis", "shape": [], "dtype": "int32"}, {"name": "ConstantFolding/StatefulPartitionedCall/sequential/layer_normalization_5/ones/packed_const_axis", "shape": [], "dtype": "int32"}]}]}